06_recurrent_neural_network/weights/best_weights.pth (torch, 613591 bytes, 23 tensors)

lstm.weight_ih_l0 f4 [256, 1]
0	0xbcea940b	-0.028635046
1	0xbb0a15a7	-0.0021070035
2	0x3d09788e	0.033562236
3	0x3c0c6fca	0.008571574
4	0x3ab55aa4	0.0013836217
5	0x3a4d0cd9	0.0007822044
6	0xbcc61c9e	-0.024183568
7	0xbca30b2b	-0.019902786
8	0x3da42098	0.08014029
9	0xbaa8da82	-0.0012882503
10	0x3d86c732	0.06580962
11	0x3d10e37d	0.0353732
12	0x3adeedc8	0.001700812
13	0x3c2574c1	0.010098637
14	0xbcbf8c63	-0.023382371
15	0xb794ccb6	-1.77383e-05
16	0x3d0e5972	0.03475327
17	0xb960be4b	-0.00021433194
18	0xbd0af6a3	-0.033926617
19	0x3de82a98	0.11336249
20	0x3c4700ff	0.012146234
21	0x3dc738db	0.09727641
22	0xbc177e45	-0.009246414
23	0x3ce17ff1	0.027526828
24	0xbbd2fb74	-0.006438667
25	0x3d19f0c6	0.037583135
26	0xbcea1a3a	-0.028576959
27	0xbcf1bba5	-0.029508421
28	0xbc5262d0	-0.012840942
29	0xbb301cdf	-0.0026872677
30	0xbb7150de	-0.0036821882
31	0xbdedf5d1	-0.116191514
32	0x3ba880d8	0.0051423125
33	0xbda5ca43	-0.08095219
34	0x3b604981	0.00342235
35	0xbd2068fe	-0.03916263
36	0x3d773600	0.060354233
37	0xbcb01cd7	-0.021498127
38	0x3b8e7a56	0.0043480797
39	0xbd29f97d	-0.041497696
40	0x3998f117	0.00029171325
41	0xbb2a9bbc	-0.0026032766
42	0x3827e985	4.0033385e-05
43	0xbd267cc3	-0.040646326
44	0xb99c4c32	-0.0002981141
45	0x3d04cc38	0.03242132
46	0x3dbf7e9f	0.09350323
47	0xbcfd2987	-0.03090359
48	0x3ca9d883	0.020733124
49	0xba2032d7	-0.00061110914
50	0x3c74d2ed	0.014942867
51	0xbc8ba41d	-0.017046029
52	0x3d74db90	0.059779704
53	0xbd0dec99	-0.034649465
54	0x3d260a42	0.040537126
55	0xbb00b3f0	-0.00196385
56	0xbc454911	-0.012041346
57	0xbbb02143	-0.005375059
58	0x3bb221d4	0.0054361615
59	0xbd211bc2	-0.039333113
60	0xbd1a44ae	-0.037663154
61	0x3d5ca9a5	0.053872723
62	0xb86f9930	-5.7124707e-05
63	0x3d73d003	0.059524547
64	0xbcbad663	-0.022807306
65	0xba71e0ac	-0.0009226899
66	0xb9392ab9	-0.0001765889
67	0x3c25ed5a	0.01012739
68	0x3cd58be5	0.026067683
69	0xb94ba613	-0.00019421456
70	0xbb6a142e	-0.0035717594
71	0xbc9821b8	-0.018570766
72	0x3d9bae5a	0.07601614
73	0xbc6036f5	-0.013684978
74	0x3d268a70	0.040659368
75	0x3d483a7d	0.048883904
76	0xbcd37334	-0.025811769
77	0x3d4d2556	0.050084434
78	0xbc93033a	-0.017945874
79	0xb7387dda	-1.0996557e-05
80	0x3dd8fde9	0.105953045
81	0x35bc0cb0	1.4010784e-06
82	0x3c94dbdb	0.018171242
83	0x3d13a38a	0.036044635
84	0x3ceb178e	0.028697755
85	0x3df4c4fb	0.119516335
86	0x3d92ac82	0.071618095
87	0x3c500609	0.012696751
88	0xbb4177f3	-0.0029520958
89	0x3c1151f9	0.008869641
90	0xbbe75702	-0.0070599327
91	0xbbffa4fe	-0.007801651
92	0xbc0408df	-0.008058756
93	0xba24581a	-0.00062692317
94	0xbcf0b2ef	-0.029382197
95	0xbd3ea032	-0.046539493
96	0x3aaf4bbb	0.001337401
97	0xbd58c5cb	-0.052923005
98	0x399afafa	0.0002956016
99	0xbcc2663c	-0.02373039
100	0xb9aac9c9	-0.00032575268
101	0xbc1bab7c	-0.009501334
102	0xbcac1f76	-0.021011095
103	0xbd5be4d7	-0.053685036
104	0x391bca97	0.00014857423
105	0x3da4b4cc	0.08042297
106	0xbb9e3eca	-0.0048292624
107	0xbb61103f	-0.0034341959
108	0xb83c480d	-4.4889795e-05
109	0x3cfe2a5f	0.031026063
110	0x3dee51ae	0.11636673
111	0x3bcc4274	0.006233508
112	0x3b08cc8b	0.002087387
113	0xb9036b14	-0.00012533023
114	0xba99d2a9	-0.0011735755
115	0x3da2cdd8	0.07949418
116	0xbbd060a2	-0.006359176
117	0xbba645f3	-0.0050742566
118	0xbc05bf8d	-0.008163345
119	0xbd56e445	-0.05246379
120	0xbbb6950b	-0.0055719665
121	0xba64c413	-0.0008726727
122	0xbb323bd8	-0.0027196314
123	0xbcb6958d	-0.022288108
124	0x3c0a3b91	0.008437053
125	0x3b4333a2	0.0029785414
126	0xb84d7914	-4.898857e-05
127	0x3da63f2d	0.081175186
128	0xbd2dce1f	-0.0424329
129	0xbd4e5d77	-0.050382104
130	0xbdff7e4a	-0.124752596
131	0x3e028a45	0.12748058
132	0xbd876e76	-0.066128656
133	0x3a7d366f	0.00096592953
134	0xbdbb2158	-0.09137219
135	0xbe1bb0e2	-0.15204194
136	0x3e3f55c5	0.18685062
137	0x3bbe9bf7	0.0058169323
138	0xbe53dbe3	-0.20689349
139	0x3e128c88	0.14311421
140	0xbe315627	-0.17318021
141	0x3e4fee76	0.2030581
142	0x3e052b76	0.1300486
143	0x3b49615e	0.0030728201
144	0x3e1edaa9	0.155131
145	0xbcef6c53	-0.029226458
146	0x3de34aa5	0.11098222
147	0xbe284d09	-0.16435637
148	0xbdcc133c	-0.09964606
149	0x3e339c85	0.17540176
150	0x3db9fae6	0.09081058
151	0x3dfdc7ad	0.12391601
152	0xbd508a1b	-0.050912958
153	0x3e227015	0.15863068
154	0xbd869980	-0.065722466
155	0xbe0549f2	-0.13016489
156	0x3d82abc1	0.06380416
157	0x3d117d19	0.035519693
158	0x3e2e6214	0.17029601
159	0xbdf582c6	-0.11987834
160	0xbd9b28d8	-0.0757615
161	0x3e136ce5	0.14397009
162	0xbcae4d32	-0.021277044
163	0xbd97a81e	-0.07405113
164	0x3da11fc5	0.07867388
165	0xbcf560d6	-0.029953402
166	0xbe1cde47	-0.15319167
167	0xbde7d39b	-0.113196574
168	0xbd48bf1e	-0.04901039
169	0xbe066ed7	-0.1312822
170	0xbe49e5aa	-0.19716516
171	0x3df652db	0.12027522
172	0x3ab623e9	0.00138962
173	0x3dd1e3df	0.10248541
174	0x3e3ed765	0.18636854
175	0x3e10462f	0.14089273
176	0xbd5bbc82	-0.053646572
177	0xbc81ec92	-0.015859876
178	0x3d94bb33	0.07262268
179	0x3e0bd7c1	0.13656522
180	0xbe0fcfd8	-0.1404413
181	0xbe0c903b	-0.13726895
182	0x3e1c1a52	0.15244415
183	0x3d8d8633	0.06910362
184	0xbd1d5677	-0.038412537
185	0xbc05fda9	-0.008178153
186	0x3d1eba81	0.038752083
187	0xbe130ac2	-0.14359573
188	0xbdca3736	-0.09873812
189	0xbe29e0f8	-0.16589725
190	0xbca4c8de	-0.020115312
191	0xbe40ebea	-0.18839994
192	0xbdad828c	-0.084721655
193	0xbb145e33	-0.0022639155
194	0x3cc05543	0.023478156
195	0xbcb49c17	-0.022047086
196	0x3d1f4b20	0.038890004
197	0x39416772	0.0001844445
198	0xbbd774ca	-0.0065752016
199	0xbc263de7	-0.010146595
200	0x3d8f26cc	0.06989822
201	0xbc02cb12	-0.007982986
202	0x3dd2b6e5	0.102887906
203	0xbbec79bc	-0.0072166603
204	0x3b88b9aa	0.0041725235
205	0x3d8fc69e	0.07020305
206	0xbd38598b	-0.04500727
207	0xb79b490c	-1.8511455e-05
208	0x3dda09f4	0.1064643
209	0xb905f2c4	-0.00012774306
210	0x3d06f639	0.03294966
211	0x3de313a3	0.1108773
212	0xbbca5ccd	-0.0061756135
213	0x3e1109f0	0.14163947
214	0x3d51e110	0.051240027
215	0x3c86bea0	0.016448319
216	0xbb39f4e5	-0.0028374728
217	0xbc1bced4	-0.009509761
218	0xbc2e9c81	-0.010657431
219	0x3b705314	0.0036670612
220	0xba145434	-0.0005658299
221	0xbb5678bb	-0.003272577
222	0x3c8ad7de	0.016948637
223	0xbde1dfff	-0.11029052
224	0x3b48d203	0.0030642755
225	0xbd65531b	-0.05598746
226	0x3b276f88	0.0025548656
227	0xbca9b105	-0.020714292
228	0x3d5aae8f	0.05338913
229	0xbc8c4ee3	-0.01712746
230	0xbd74d679	-0.05977485
231	0xbd2f2c2f	-0.042766746
232	0x3b422e83	0.0029629774
233	0x3dc4434a	0.09583147
234	0x3c40a614	0.011758346
235	0xbcf35310	-0.029702693
236	0xb98c442b	-0.0002675367
237	0x3d9e370d	0.07725344
238	0x3dd06208	0.10174948
239	0xbc8b8254	-0.017029919
240	0x3a9939d1	0.0011690204
241	0xb9f2eb36	-0.00046333083
242	0xbb0f1882	-0.0021834676
243	0x3d6a7f4d	0.05725031
244	0x3d6c6233	0.057710838
245	0xbcaa1daa	-0.020766098
246	0x3d07d647	0.033163335
247	0xbc8dda80	-0.017316103
248	0xbc2e69f9	-0.010645383
249	0xbacf3725	-0.0015809281
250	0xbb6403c9	-0.0034792295
251	0xbca3c1b2	-0.019989822
252	0xbccf1c0a	-0.025281925
253	0x3da21461	0.07914043
254	0xb873c27d	-5.8116846e-05
255	0x3db71a5c	0.089405745

lstm.weight_hh_l0 f4 [256, 64]
0	0xbc17ff3f	-0.009277164
1	0xb94ac2ba	-0.00019336762
2	0x39ed3791	0.00045245563
3	0xb9a3efaf	-0.0003126836
4	0x3b259f92	0.0025272113
5	0x3811f1d9	3.4795932e-05
6	0xb52bd738	-6.401565e-07
7	0x393e90ef	0.00018173804
8	0xbadf389d	-0.0017030422
9	0x3b5c18ff	0.0033584235
10	0x3b067c6b	0.0020520936
11	0xba4393ca	-0.0007460682
12	0x395abb73	0.0002085993
13	0xbb0ae09e	-0.0021191011
14	0x3af3b4ce	0.0018593313
15	0xb7daeb99	-2.6097334e-05
16	0xba86ebb8	-0.0010293638
17	0xb89a4fd8	-7.358164e-05
18	0xb964f5cc	-0.00021835341
19	0x3b359270	0.0027705692
20	0x391a9286	0.00014741169
21	0xba7ce9c4	-0.0009647871
22	0xbab8ae6a	-0.0014090065
23	0xba20ff9f	-0.0006141606
24	0xb96f6804	-0.00022831565
25	0xbaba75b3	-0.0014225751
26	0xb9548136	-0.0002026603
27	0x3927d490	0.00016005547
28	0x397642d3	0.00023485282
29	0x38fe1ba8	0.00012116815
30	0xba525508	-0.0008023535
31	0x3aaaff8d	0.0013046131
32	0xb9276c49	-0.000159667
33	0x3b018832	0.0019765017
34	0xb79f3a5c	-1.8981453e-05
35	0xb924c9d3	-0.00015715444
36	0xb9fc6c20	-0.00048145745
37	0x3a529e40	0.00080344453
38	0xb933b989	-0.00017139887
39	0x3a066984	0.00051274174
40	0xb9b224a8	-0.00033978117
41	0x3b370eb4	0.0027932348
42	0x3a543c7f	0.0008096173
43	0xb8b94cac	-8.835769e-05
44	0x37ef8fb5	2.8557939e-05
45	0xbb37cea5	-0.0028046754
46	0xbaba7771	-0.001422627
47	0x3ac601a1	0.0015106687
48	0x39546d3f	0.00020258593
49	0xb89002e7	-6.866996e-05
50	0x383a31a3	4.4392084e-05
51	0xbb0b3dea	-0.002124662
52	0x3a47eee0	0.00076268427
53	0x3ac258bd	0.0014827471
54	0xbb4a18ea	-0.0030837604
55	0x3ba55c07	0.005046371
56	0xb97438d5	-0.00023290825
57	0xb6b5809f	-5.409194e-06
58	0x3847e299	4.7656333e-05
59	0x39b34655	0.00034193942
60	0x3b238ae8	0.002495462
61	0x3b08d1fb	0.0020877111
62	0xb8b38631	-8.56038e-05
63	0x3ad7062f	0.0016405041
64	0xb94edae0	-0.00019727228
65	0xb8ca7fa8	-9.6558884e-05
66	0xb992cec4	-0.00028001342
67	0x398edf53	0.0002725074
68	0xb8a2eefd	-7.769277e-05
69	0xb7bb06c0	-2.229528e-05
70	0xb97aee20	-0.00023930566
71	0xb98ce868	-0.00026876037
72	0x398b368f	0.00026552795
73	0xb7c626aa	-2.3621444e-05
74	0xb9987642	-0.00029079808
75	0x3988ae52	0.0002606982
76	0xb99b89c1	-0.00029666538
77	0x398800ed	0.0002594063
78	0x39637599	0.00021692216
79	0xb58e80c3	-1.0617299e-06
80	0x3998566c	0.00029056089
81	0x37d8dae3	2.5851134e-05
82	0x397bcc72	0.00024013387
83	0xb95cc70f	-0.0002105499
84	0xb97dffa0	-0.00024223188
85	0x39a60b2f	0.0003167032
86	0x39131d44	0.00014029915
87	0x3979ce2c	0.00023823295
88	0xb8cdd6ec	-9.815194e-05
89	0x3980193b	0.0002443286
90	0xb95485c1	-0.00020267723
91	0xb98bbaf9	-0.00026651451
92	0x38b842d4	8.7862514e-05
93	0x38ecf479	0.000112988935
94	0x398718e4	0.00025767752
95	0xb96eb917	-0.000227664
96	0xb88d48a2	-6.736933e-05
97	0x398a6075	0.00026393277
98	0xb80fc0cf	-3.4273424e-05
99	0xb96bbb33	-0.00022481084
100	0x395c34b8	0.00021000474
101	0xb90ebbcc	-0.00013612135
102	0xb99388b5	-0.0002813988
103	0xb98dde96	-0.00027059455
104	0xb85777d9	-5.137161e-05
105	0xb92a2f22	-0.00016230022
106	0xb9930743	-0.00028043435
107	0x39862570	0.00025586365
108	0x361a923b	2.3032906e-06
109	0x392c0464	0.00016404834
110	0x39a0e41a	0.00030687527
111	0x398cf965	0.00026888694
112	0xb8e58401	-0.000109441586
113	0x37854da3	1.5890988e-05
114	0x397b3d9e	0.0002396018
115	0x397b39ff	0.0002395883
116	0xb986406a	-0.00025606464
117	0xb983dc2f	-0.00025150317
118	0x3919c9f4	0.0001466645
119	0x38ee20ca	0.00011354832
120	0xb93f2d99	-0.00018232166
121	0x37fcbaca	3.0127721e-05
122	0xb72caad7	-1.0291776e-05
123	0xb989eb82	-0.00026306143
124	0xb88cf5d8	-6.721512e-05
125	0xb9720480	-0.00023080595
126	0x35e4831e	1.7025484e-06
127	0xb99b2666	-0.00029592513
128	0x3be2f43d	0.006926088
129	0xb985d7d6	-0.00025528547
130	0x3bb02e0a	0.005376582
131	0xbc0f7f21	-0.008758337
132	0x3b84993f	0.0040465887
133	0xb99f5302	-0.0003038869
134	0x3b6c221e	0.0036031078
135	0x3b37ec03	0.0028064258
136	0xbb883374	-0.0041565243
137	0xba1c9427	-0.0005973004
138	0x3b366e1c	0.0027836626
139	0xbb8e562a	-0.0043437677
140	0x3bad7817	0.005293857
141	0xbc734613	-0.01484825
142	0xbb809d2c	-0.0039249863
143	0xb8abf499	-8.199475e-05
144	0xbaa5bfbf	-0.0012645646
145	0x39d41556	0.00040451688
146	0xbb37fd28	-0.0028074477
147	0x3b52666d	0.0032104508
148	0x3b43b95c	0.0029865121
149	0x3c0f2358	0.008736454
150	0xba107297	-0.0005510239
151	0xbbce0565	-0.006287264
152	0xb9313145	-0.0001689839
153	0xbc2e5c2c	-0.010642093
154	0x3a8d6c18	0.0010789661
155	0x3baaa62a	0.0052077966
156	0xba2285df	-0.0006199758
157	0x3a9135eb	0.0011078691
158	0xbc0a6917	-0.008447907
159	0x3c338ebf	0.010959326
160	0x36ff379b	7.6060655e-06
161	0xbb844de0	-0.0040376037
162	0xb8959464	-7.1325136e-05
163	0x3adaa6bd	0.0016681772
164	0xbb72ce60	-0.0037049279
165	0x3b87a7fb	0.004139898
166	0x3bc0d7ce	0.005885101
167	0x3bfef930	0.0077811703
168	0x39ac41f3	0.00032855532
169	0x3ac42343	0.0014964122
170	0x3b069961	0.0020538198
171	0xbc04ff6c	-0.008117538
172	0xb8809e67	-6.13302e-05
173	0xbb255361	-0.00252267
174	0x3a17d305	0.0005791637
175	0x3a7b85d8	0.00095948344
176	0x3a3ef227	0.00072840083
177	0x36a60bab	4.948544e-06
178	0xbbd0a986	-0.006367865
179	0xbc0e84bc	-0.0086986385
180	0x3c1c9573	0.009557116
181	0x3c9f1e75	0.019423703
182	0xbac989e9	-0.0015376183
183	0xbc3a96e1	-0.011388511
184	0x38ee63cd	0.00011367314
185	0x399d8469	0.00030044027
186	0xb9e19a43	-0.00043030278
187	0x3bd1a1e5	0.006397473
188	0x3991af03	0.0002778695
189	0xbaeefea6	-0.001823385
190	0xb93b9222	-0.00017888148
191	0x3af3010b	0.001853974
192	0x3b2c1fec	0.0026264144
193	0xb98e349b	-0.00027123545
194	0x3ba3d7e8	0.0050001033
195	0xbb822809	-0.0039720577
196	0x3aaa4c15	0.0012992645
197	0xb96fe456	-0.00022877878
198	0x3b20c197	0.002452945
199	0x3b9be7ce	0.004757858
200	0xbbadf29e	-0.0053084632
201	0x3a319e28	0.0006775581
202	0x3c1bf423	0.009518656
203	0xbbb7eb98	-0.0056128018
204	0x3bcbc6c6	0.006218764
205	0xbc12d042	-0.008960785
206	0xb91bbc7e	-0.0001485217
207	0xb83f563c	-4.561826e-05
208	0xbb471a46	-0.003038065
209	0x397f6f5f	0.00024360184
210	0xbb454e2c	-0.0030106409
211	0x3b9cad43	0.0047813966
212	0x3b3d6d77	0.0028904357
213	0x3b38c098	0.0028190967
214	0xbb30e2f6	-0.0026990748
215	0xbb9889ab	-0.004655083
216	0xb9608229	-0.00021410793
217	0xbc0f57f5	-0.008748998
218	0x3a0d1939	0.00053824816
219	0x3b1cae5e	0.0023907642
220	0xb9a9342f	-0.00032273072
221	0x3a37a9d9	0.0007006205
222	0xbbda9387	-0.0066704187
223	0x3bbe6992	0.005810925
224	0xb8a5d9d4	-7.908387e-05
225	0xbba5568f	-0.005045719
226	0xb8a6c4bb	-7.952141e-05
227	0x3a9e31b3	0.0012069255
228	0xbb47eb24	-0.0030505145
229	0x3a86e83d	0.0010292601
230	0x3ba407ff	0.005005836
231	0x3bcfd7dd	0.0063428716
232	0xb9893fcb	-0.00026178206
233	0x3b86945f	0.0041070427
234	0x3bc8c2ce	0.006126738
235	0xbbbefc2a	-0.0058284
236	0xb7f41fa5	-2.9101802e-05
237	0xbbfce3d0	-0.007717587
238	0xbb0ea909	-0.0021768233
239	0xbbcbc6f9	-0.0062187877
240	0x39d37189	0.00040329646
241	0x3746a8df	1.1841038e-05
242	0xbb3d1c3c	-0.002885594
243	0xbc727393	-0.014798063
244	0x3b6f34e9	0.0036500043
245	0x3c201bf2	0.009772288
246	0xbb33dd3d	-0.00274451
247	0x3a85d477	0.0010210414
248	0x388636bf	6.399815e-05
249	0x39742016	0.00023281606
250	0xb947060c	-0.00018980372
251	0x3b9dd22f	0.0048163156
252	0x3b7442f8	0.0037271362
253	0x3b9ee6c0	0.004849285
254	0xb959506d	-0.00020724694
255	0x39a8578a	0.0003210868

lstm.bias_ih_l0 f4 [256]
0	0xbd620a5d	-0.055185664
1	0xbc204ae4	-0.00978348
2	0xbca5ef5e	-0.02025574
3	0x3cd0e8b7	0.025501592
4	0xbd5d82fb	-0.05407999
5	0xbc3bda3e	-0.011465607
6	0x3bf30bca	0.007417177
7	0x3d6d1df3	0.05788989
8	0x3d9f20c0	0.077699184
9	0xbda8e171	-0.082461245
10	0x3d93b257	0.0721175
11	0x3d0cb17b	0.034348946
12	0x3d372701	0.04471493
13	0x3dfac003	0.122436546
14	0xbd556c8d	-0.052105475
15	0xb9e492fc	-0.0004359706
16	0x3dc798ad	0.097459175
17	0xba250ec6	-0.0006296452
18	0x3c899e47	0.016799105
19	0x3ccc191f	0.024914322
20	0xbc2ccfbb	-0.010547574
21	0xbd17a059	-0.037018154
22	0xbdaf3ad1	-0.0855614
23	0x3d3ad35a	0.045611717
24	0xbbf6ffa8	-0.007537801
25	0x3d971a1e	0.07378028
26	0xbd1a972a	-0.037741818
27	0x3c3cc68c	0.011521947
28	0xbc77096d	-0.015077931
29	0xbbaf0737	-0.0053414362
30	0x3d1199a5	0.035546917
31	0xbd5c83bd	-0.053836573
32	0xbd2b2f7c	-0.04179333
33	0xbd30d908	-0.043175727
34	0xbc54c2c6	-0.012985891
35	0xbcb90365	-0.022584626
36	0xbd172431	-0.03689975
37	0xbd298f7c	-0.041396603
38	0xbcf57e2b	-0.029967388
39	0x3da7d757	0.0819537
40	0xbd7f04e9	-0.062260542
41	0x3ce1205d	0.027481252
42	0x3d428218	0.04748735
43	0x3caaff38	0.02087365
44	0x3a1f7824	0.0006083271
45	0x3ca2e3c1	0.019883992
46	0x3d5d0bdc	0.053966388
47	0x3c1910b9	0.009342366
48	0xbc7aee16	-0.015315553
49	0xb8d75f5e	-0.000102697624
50	0xbabc41a3	-0.0014362823
51	0x3dcfee9c	0.10152933
52	0x3c09ecc2	0.008418264
53	0x3d883082	0.06649877
54	0xbd4a12e0	-0.049334407
55	0x3c35f9c8	0.011106916
56	0xbc8f7137	-0.01751004
57	0xb9fbe4ab	-0.00048044822
58	0xbd02e256	-0.031954132
59	0x3d340152	0.04394657
60	0xbdac21bb	-0.08404871
61	0x3c4cbe11	0.012496487
62	0xb9bfcc53	-0.00036582592
63	0x3e01735e	0.12641665
64	0x3cfbec6c	0.030752383
65	0xbbaa45ec	-0.0051963236
66	0x3d246f25	0.04014506
67	0x3d3e36bc	0.046438918
68	0x3c9822b2	0.018571232
69	0xbb93ca6e	-0.0045102155
70	0x3c300808	0.010744102
71	0x3d51a626	0.051183842
72	0x3db17ab2	0.086659804
73	0xbbd30f6c	-0.0064410474
74	0x3d730237	0.059328284
75	0x3d78cbdd	0.060741294
76	0x3d02986c	0.031883642
77	0x3e11b860	0.1423049
78	0x3ccfcc5c	0.025366
79	0xb8c6a15b	-9.4714305e-05
80	0x3d145af9	0.03621957
81	0xba2574cb	-0.0006311654
82	0x3d33345c	0.043751106
83	0x3d5b3561	0.053517703
84	0x3c2c33cb	0.010510395
85	0x3db28879	0.08717436
86	0x3d4cc9d0	0.04999715
87	0x3c766db8	0.015040807
88	0xbc80952a	-0.015696127
89	0x3dd8a2eb	0.10577949
90	0x3ad91efd	0.0016565021
91	0x3c6361f8	0.013878338
92	0xbc5911ab	-0.013248841
93	0xbc234a3d	-0.00996643
94	0xbb8a73a8	-0.004225213
95	0x3cfe0e12	0.031012569
96	0x3b01b859	0.0019793718
97	0x3d085877	0.03328749
98	0xbc8fa0d4	-0.017532744
99	0xbc7b1b2e	-0.015326304
100	0xbd2baa75	-0.041910607
101	0xbcf93934	-0.030422784
102	0x3dc11bef	0.09429156
103	0x3d62c56a	0.05536405
104	0xbd1a41dc	-0.037660465
105	0xbb9d5bd7	-0.004802208
106	0x3d47ac28	0.048748165
107	0xbcfa4aed	-0.030553306
108	0xba4470f5	-0.00074936385
109	0x3d6592aa	0.056048073
110	0x3d96f5f2	0.07371129
111	0xbae424c0	-0.0017405972
112	0xbd4bef82	-0.04978896
113	0xbab988f7	-0.0014155199
114	0xbcf78c94	-0.0302184
115	0x3e01e13c	0.12683576
116	0x3c987f4a	0.018615384
117	0x3dd4b8fb	0.10386845
118	0x3d6f91be	0.0584886
119	0x3ca75f13	0.020431077
120	0xbc07996a	-0.008276323
121	0xbb94777f	-0.0045308466
122	0xbca3b350	-0.019982964
123	0x3d42e5c7	0.047582414
124	0x3b151fc9	0.002275454
125	0x3d4920ef	0.049103674
126	0xb93dd216	-0.00018102708
127	0x3cc66a0f	0.024220495
128	0x3db1dfbe	0.086852536
129	0x3de132ff	0.10996055
130	0x3a32d6f2	0.00068221905
131	0x3c04e010	0.008110061
132	0xbd3855ef	-0.045003828
133	0x3cb86be4	0.022512384
134	0xbd9218c6	-0.071336314
135	0x3d01f3b2	0.031726547
136	0x3d184cb7	0.037182536
137	0xbcbb8dcb	-0.02289476
138	0x3d4101d7	0.047120895
139	0x3d89c4cb	0.067269884
140	0x3d01501d	0.031570543
141	0xbdf31702	-0.11869623
142	0xbd0ba315	-0.034091074
143	0x3c7e1854	0.01550873
144	0x3b3ff9c1	0.0029293152
145	0xbb97596c	-0.004618814
146	0x3d283d4a	0.041074075
147	0x3da9cd11	0.082910664
148	0xbd1ff32e	-0.039050274
149	0x3d48319a	0.04887543
150	0xbd212724	-0.039343968
151	0xbbefb743	-0.0073155477
152	0xbd830b70	-0.06398666
153	0xbc3d0f52	-0.011539297
154	0x3d9bc9dc	0.07606861
155	0xbd2becd4	-0.041973904
156	0xbcf05da7	-0.029341532
157	0xbca018d7	-0.019543095
158	0x3c8bbb41	0.017057063
159	0x3de22920	0.11043
160	0x3ddabdd5	0.10680739
161	0xbdb8bffd	-0.09020994
162	0x3d2b993f	0.041894194
163	0xbdbca41b	-0.09210988
164	0x3d6424a7	0.055699017
165	0xbce5f7f5	-0.028072337
166	0x3c261063	0.010135743
167	0x3cc8e4d1	0.02452317
168	0x3d01463e	0.03156113
169	0x3d173bff	0.03692245
170	0x3d8884f9	0.066659875
171	0xbd132c8a	-0.035931148
172	0x3d6b2313	0.057406496
173	0x3d4e7a06	0.05040934
174	0xbc1627c5	-0.009164755
175	0xbd274342	-0.040835626
176	0x3c1bb1bc	0.009502824
177	0xbd4d27e3	-0.050086867
178	0xbd96bfaf	-0.073607795
179	0x3ca76be1	0.020437183
180	0x3ddb5c0d	0.10710917
181	0xbcf45be1	-0.029828968
182	0x3c9e34eb	0.019312343
183	0xbd88587a	-0.066575006
184	0xbdb59e7f	-0.08868121
185	0xbd634ea6	-0.055494927
186	0x3d73f6d5	0.05956157
187	0x3d93a90e	0.07209979
188	0x3b7acc10	0.0038268603
189	0x3ddba40f	0.10724651
190	0xbcd251f4	-0.025673844
191	0x3d06b6f3	0.032889318
192	0x3ce0ae2b	0.0274268
193	0xbc3aa0e3	-0.011390897
194	0x3d3e0e1b	0.04640017
195	0x3b96d08c	0.0046024974
196	0xbae65c01	-0.0017575027
197	0xbb91d880	-0.0044508576
198	0x3bcf12d0	0.0063193813
199	0x392a7063	0.0001625433
200	0x3dde6c0e	0.108604535
201	0xbd612752	-0.05496914
202	0x3dee006c	0.11621174
203	0x3d852136	0.06500475
204	0x3c653d25	0.013991629
205	0x3e234a9d	0.15946431
206	0xbda75a2c	-0.08171496
207	0xb9c29d24	-0.00037119642
208	0x3ab3699b	0.0013688089
209	0xbadc9940	-0.001683034
210	0x3d0b247e	0.03397035
211	0x3d41d2ca	0.047320165
212	0x3d1b1577	0.037862267
213	0x3e036ce2	0.12834504
214	0xbd5f6236	-0.05453702
215	0x3c4f5f96	0.012657067
216	0xbcb35dc4	-0.021895297
217	0x3dbea6a8	0.09309131
218	0xbd247705	-0.04015257
219	0x3bc60b2e	0.006043813
220	0xbc79ef07	-0.0152547425
221	0xbd03d30c	-0.03218369
222	0x3cdfbe4b	0.027312418
223	0xbd46f42d	-0.048572708
224	0x3c6702f0	0.014099821
225	0xbcfa0c0d	-0.030523324
226	0xbc0d1474	-0.008610833
227	0xbbc9a40c	-0.006153589
228	0xbc72fd7d	-0.014830944
229	0xbd660012	-0.05615241
230	0x3d16702f	0.03672808
231	0x3d833314	0.06406227
232	0x3c8ef53b	0.01745092
233	0xbcee5752	-0.029094372
234	0x3bb46935	0.0055057057
235	0x3cf06612	0.029345546
236	0xbbb6e354	-0.005581299
237	0xbcfe8dba	-0.03107344
238	0x3dd6259f	0.104563944
239	0x3d4400bc	0.047852263
240	0xbcab3ef0	-0.020904034
241	0xbb7f4428	-0.0038950536
242	0x3a0cb77c	0.00053679175
243	0x3dbbad47	0.091639094
244	0x3c35efd0	0.011104539
245	0x3d158a9a	0.036509134
246	0xbd64db70	-0.055873334
247	0x3cc7e520	0.024401248
248	0xbc871f5e	-0.01649445
249	0xbc925510	-0.017862827
250	0xbc032e35	-0.008006622
251	0x3cd6e238	0.026230916
252	0x3cdbf19c	0.026848607
253	0x3cd39a2d	0.025830353
254	0xb9d68328	-0.0004091498
255	0x3df74a17	0.120746784

lstm.bias_hh_l0 f4 [256]
0	0x3d32a489	0.043613944
1	0xbc16973c	-0.0091913305
2	0x3d3b533f	0.045733687
3	0x3d40451a	0.0469409
4	0xbd2944e3	-0.04132546
5	0xbc648a5f	-0.013949006
6	0x3b9fec0e	0.004880435
7	0xbc19e37c	-0.009392615
8	0xb8f346a0	-0.00011600298
9	0xbd273463	-0.040821444
10	0x3c858d81	0.016302826
11	0xbc4bd85a	-0.012441719
12	0x3dbfe767	0.09370308
13	0x3da9a9f7	0.08284371
14	0xbd4e0a03	-0.050302517
15	0xba1baba8	-0.00059383595
16	0x3d57eec2	0.05271793
17	0xbb5a20a0	-0.0033283606
18	0xbc71ddc5	-0.014762347
19	0xbd03b5ae	-0.032155685
20	0xbcdfb043	-0.027305728
21	0x3cfa99a9	0.030590849
22	0x3c021291	0.007938997
23	0x3d38254f	0.044957455
24	0xbc1b3bdb	-0.00947472
25	0x3db73df8	0.089473665
26	0xbc2a3ad0	-0.010389999
27	0x3c3f61da	0.0116810445
28	0x3c5ce28e	0.013481749
29	0xbcf5105e	-0.029915031
30	0xbb3a3087	-0.0028410272
31	0x3d417fe0	0.04724109
32	0xbd270385	-0.04077484
33	0x3bc1389f	0.0058966423
34	0xbd0713fa	-0.032978036
35	0xbd1f0144	-0.038819566
36	0xbc9f6048	-0.01945509
37	0xbd497552	-0.04918415
38	0xbd0c0ee6	-0.034193896
39	0x3d36d43d	0.044636
40	0x3cacdcd3	0.021101391
41	0x3d36e625	0.044653077
42	0x3c182bbe	0.009287773
43	0x3ae6eb19	0.0017617672
44	0x3ac6f5a4	0.0015179408
45	0x3c20d1dc	0.009815659
46	0x3de2eabf	0.110799305
47	0x3ddb1761	0.106978185
48	0x3b5e702f	0.0033941378
49	0xbba9b418	-0.0051789396
50	0xbad9b9d4	-0.0016611167
51	0x3d9856cb	0.074384294
52	0x3d3ad633	0.045614433
53	0x3dbfb670	0.09360969
54	0xbb239802	-0.002496243
55	0x3cce9e79	0.02522205
56	0xbc8225a2	-0.015887085
57	0xbc8dd37c	-0.017312758
58	0xbc4853ad	-0.012226981
59	0xbce44dd7	-0.027869148
60	0x3b976bf7	0.0046210247
61	0x3d9255d3	0.07145276
62	0xb9cec970	-0.00039441464
63	0x3dd90b52	0.10597862
64	0xbd234313	-0.03985889
65	0xbb97dead	-0.0046346993
66	0x3d31c772	0.043403096
67	0x3d288bcc	0.041148946
68	0xbb9a27d4	-0.004704455
69	0xbbafff34	-0.0053709988
70	0x3c741080	0.014896512
71	0x3cd578a8	0.02605851
72	0x3d99ed56	0.07515971
73	0xbd1a3162	-0.03764475
74	0x3df84424	0.12122372
75	0x3d881201	0.06644059
76	0x3d5f1b36	0.05446931
77	0x3d58b4d9	0.052906845
78	0xbd3669d0	-0.044534504
79	0xb8b68e42	-8.704934e-05
80	0x3d98f906	0.074693725
81	0xba565ed9	-0.00081775856
82	0x3c08ecf9	0.00835728
83	0x3ddd44f9	0.10804171
84	0x3d3e3753	0.04643948
85	0x3def874c	0.11695728
86	0xbdaf5ee6	-0.08563022
87	0x3d45a9ba	0.048257567
88	0xbbeb82f9	-0.007187244
89	0x3c81f3f8	0.015863404
90	0x3c2f35ae	0.010693951
91	0x3c9849ee	0.01858994
92	0xbc599a5b	-0.01328143
93	0xbc1e7617	-0.0096717095
94	0x3d8099ce	0.06279336
95	0xbd969ca8	-0.073540986
96	0xbcaadeab	-0.02085813
97	0x3ac24c6e	0.0014823803
98	0xbca927db	-0.020648887
99	0x3a82f8d6	0.0009992372
100	0x3d30cf18	0.04316625
101	0xbbfa5911	-0.007640012
102	0x3d848822	0.06471278
103	0xbd2c44f6	-0.042057954
104	0xbd064269	-0.032778177
105	0xbd449a2e	-0.0479986
106	0x3dc43ad1	0.09581531
107	0x3d32cc82	0.043652065
108	0x3826f19d	3.9802504e-05
109	0xbd81844e	-0.06324063
110	0x3d8b6b13	0.06807532
111	0x3d4f46d0	0.05060464
112	0xbd18db0a	-0.037318267
113	0xbabc8338	-0.0014382368
114	0x3bae0764	0.0053109396
115	0x3d382e81	0.044966225
116	0xbae63b13	-0.0017565213
117	0x3d9db388	0.077002585
118	0xbd1814a0	-0.037129045
119	0x3c8f951c	0.017527156
120	0xbc04b75d	-0.008100358
121	0xbc2b502b	-0.010456125
122	0xbc7a6510	-0.015282884
123	0xbc204eab	-0.009784381
124	0x3caa1731	0.020763012
125	0x3c9ce33c	0.019151323
126	0xb93dd534	-0.00018103869
127	0x3de35fca	0.11102255
128	0x3d898974	0.0671567
129	0xbdb4133b	-0.087927304
130	0x3d8d8b9a	0.069113925
131	0xbd995a4f	-0.07487928
132	0x3be6d668	0.007044602
133	0xbcf67771	-0.030086251
134	0x3dd20858	0.10255498
135	0x3d8cb467	0.068703465
136	0xbde642f4	-0.11243239
137	0xbcb6cb13	-0.02231363
138	0x3d450524	0.048100606
139	0xbdd461b4	-0.10370198
140	0x3dc57580	0.09641552
141	0x3b4ca1a8	0.0031224284
142	0xbdd71159	-0.10501356
143	0xbc3f392b	-0.011671345
144	0xbd6fe4e0	-0.05856788
145	0x3cb8f9d5	0.022580067
146	0xbdaa424f	-0.083134286
147	0xbd88956c	-0.06669125
148	0x3d73362a	0.059377827
149	0xbe00acab	-0.12565868
150	0x3d828208	0.06372458
151	0xbca03e8f	-0.01956108
152	0x3da8327b	0.082127534
153	0xbd8bfca4	-0.06835297
154	0xbd6d073c	-0.057868227
155	0x3de63852	0.11241211
156	0xbcd79c0d	-0.026319528
157	0xbc85c91b	-0.016331246
158	0xbddb9b7a	-0.10723014
159	0x3db8a2df	0.0901544
160	0xbd9ccee1	-0.076566465
161	0xbd6214f1	-0.055195753
162	0xbc837b1b	-0.016049912
163	0x3e03b8d1	0.1286347
164	0xbd423895	-0.047417242
165	0x3b04fdf7	0.0020292976
166	0x3dde183e	0.108444676
167	0x3dd73f5b	0.10510131
168	0x3c68c8e7	0.014208055
169	0xbd4a72fa	-0.049426056
170	0x3d2d257e	0.042272083
171	0xbd4f91bb	-0.05067609
172	0xbd60db34	-0.05489655
173	0xbbaacdb5	-0.0052125105
174	0xbdac6b1d	-0.08418868
175	0xbdaff119	-0.085909076
176	0xbc318266	-0.010834312
177	0x3d8128e7	0.0630663
178	0x3d77ff2c	0.060546085
179	0xbd70f8a8	-0.058830887
180	0xbd78c7ef	-0.060737547
181	0x3daa5fcb	0.08319052
182	0xbcf29aeb	-0.029614886
183	0xbd55231e	-0.052035443
184	0x3de9e973	0.1142148
185	0x3d5d1bfb	0.053981762
186	0xbd8f895d	-0.07008622
187	0x3caf7423	0.021417683
188	0xbc42762f	-0.0118689975
189	0xbd9d354f	-0.076761834
190	0x3d039ad4	0.032130077
191	0x3d770620	0.060308576
192	0xbdbd79bc	-0.092517346
193	0xbc643359	-0.013928258
194	0x3cf9178f	0.030406741
195	0x3cf35551	0.029703768
196	0xbb4e19a1	-0.0031448381
197	0xbc202bb9	-0.009776049
198	0x3bb77148	0.005598221
199	0x3d04f8b2	0.032463737
200	0x3dabff68	0.08398324
201	0xbbc8b336	-0.0061248792
202	0x3ddb7970	0.10716522
203	0x3ce009a9	0.027348356
204	0xba9504ac	-0.001136919
205	0x3dc64b43	0.09682324
206	0xbd764452	-0.06012375
207	0xba71eb61	-0.00092284946
208	0xbc6f982e	-0.014623685
209	0xbaf9336f	-0.0019012521
210	0x3c8f53bb	0.01749598
211	0x3d28a8e9	0.04117671
212	0xba918f7d	-0.0011105385
213	0x3d0e6125	0.034760613
214	0xbd41c5b2	-0.047307678
215	0x3d1ae26f	0.0378136
216	0xbcfa71b9	-0.030571805
217	0x3caca4f4	0.02107475
218	0xbbcd7313	-0.0062698214
219	0xbc9d1257	-0.019173784
220	0x3bf57edb	0.007491929
221	0xbd141380	-0.03615141
222	0x3ca75ae2	0.020429078
223	0x3da309a9	0.07960827
224	0x3b6981f9	0.0035630448
225	0x3c24bc88	0.010054715
226	0xbc51d0bb	-0.012806113
227	0xbc5dd442	-0.013539376
228	0xbd3958d1	-0.045250718
229	0xbd23303a	-0.039840914
230	0x3d9ece8e	0.07754241
231	0xbc2b1a67	-0.0104433065
232	0x3b8d053a	0.0043036016
233	0xbd8f8d24	-0.07009342
234	0x3d31f284	0.04344417
235	0x3d21ccdf	0.03950202
236	0xbba72dd6	-0.0051018996
237	0xbd0d3838	-0.034477443
238	0x3bff5677	0.00779229
239	0x3ceb6a8b	0.028737327
240	0xbd1d730d	-0.0384398
241	0xbb8025f2	-0.0039107734
242	0x3c8b3a0c	0.016995452
243	0x3d92e566	0.071726605
244	0xbcad7bde	-0.021177229
245	0x3db405d7	0.08790176
246	0xbd12e03e	-0.035858385
247	0x3d0f3423	0.03496183
248	0xbc9673d0	-0.01836577
249	0xbc0c1ff0	-0.008552536
250	0xbd06fd75	-0.03295656
251	0x3cadedfb	0.021231642
252	0xbd1c4532	-0.038151927
253	0x3db3bbee	0.08776079
254	0xb99c9eec	-0.00029873045
255	0x3de35c98	0.11101645

lstm.weight_ih_l1 f4 [256, 64]
0	0x3b1d86da	0.0024036677
1	0x39073642	0.00012894816
2	0x3be79f8a	0.007068579
3	0xbb9df0b8	-0.0048199557
4	0x3aa9c6ca	0.001295292
5	0xb8522716	-5.0104303e-05
6	0x3b57fe02	0.0032957797
7	0x3bce0a76	0.006287868
8	0xbc0a5aef	-0.008444532
9	0x39b9d842	0.00035447074
10	0x3c348238	0.011017375
11	0xbb9a89c6	-0.004716131
12	0x3bee409a	0.0072708847
13	0xbc812e45	-0.015769133
14	0xbb2cc501	-0.002636254
15	0xb81e2263	-3.770216e-05
16	0xbc07aeb9	-0.008281403
17	0x390702c7	0.00012875638
18	0xbb677333	-0.0035316467
19	0x3bfde256	0.0077479286
20	0x3b5570d1	0.0032568465
21	0xbb9be12e	-0.004757068
22	0xbaf447fc	-0.0018637176
23	0xbb9ea4e4	-0.004841434
24	0x39156e39	0.00014250808
25	0xbc311999	-0.010809326
26	0x3aaffb79	0.0013426385
27	0x3b835884	0.0040083546
28	0xb951a664	-0.00019993779
29	0xb96f77b7	-0.00022837413
30	0xbc02ef76	-0.007991662
31	0x3bafc351	0.0053638597
32	0xb90c87cb	-0.00013402027
33	0xbbbc8326	-0.005752939
34	0xb948b431	-0.00019140613
35	0x3b0a3e3d	0.0021094226
36	0xbb5b790a	-0.0033488893
37	0x3a96f0f1	0.0011515898
38	0x3c124296	0.008927008
39	0x3c135cac	0.008994263
40	0x396e9b62	0.00022755333
41	0x3b792d29	0.0038021302
42	0x3bf854c6	0.007578465
43	0xbbe72066	-0.0070534227
44	0xb6c8a3ed	-5.979548e-06
45	0xbb5b33fc	-0.0033447733
46	0xbc04cab7	-0.008104972
47	0xbc050a72	-0.008120166
48	0x39c98048	0.00038433284
49	0x37be1c70	2.2663007e-05
50	0xbb65d880	-0.003507167
51	0xbc6477f2	-0.013944613
52	0x3bb02861	0.0053759073
53	0x3c503a0d	0.012709153
54	0xbb1b1507	-0.0023663656
55	0x38d8b867	0.0001033403
56	0x3a816b32	0.0009873866
57	0x3836d3b8	4.358936e-05
58	0xb882aca7	-6.231042e-05
59	0x3ba36203	0.004986049
60	0x3a95c781	0.0011427255
61	0x3bbc9681	0.005755246
62	0x37efd47d	2.8589968e-05
63	0x3c3bb052	0.011455612
64	0xb6a24c0f	-4.8368306e-06
65	0xb39fb112	-7.4362234e-08
66	0x35a31c09	1.2152606e-06
67	0xb541ec82	-7.2242267e-07
68	0x3627a2dc	2.4979736e-06
69	0x33000980	2.9810963e-08
70	0x35173346	5.6326496e-07
71	0xb502a002	-4.8661616e-07
72	0xb633c5d5	-2.6788232e-06
73	0x359d37cc	1.171365e-06
74	0x362260f6	2.419632e-06
75	0xb5f72c73	-1.841587e-06
76	0xb491c4d3	-2.7151563e-07
77	0xb62acb20	-2.5450208e-06
78	0x367450e7	3.6405925e-06
79	0xb2a0e6cb	-1.8731404e-08
80	0xb6327712	-2.6593375e-06
81	0xb370bdb5	-5.6051892e-08
82	0xb5866a0a	-1.0014639e-06
83	0x36940ff0	4.412599e-06
84	0x35badba2	1.3922001e-06
85	0xb62a1d3f	-2.5348997e-06
86	0xb62ec031	-2.603989e-06
87	0xb601b8f6	-1.933016e-06
88	0xb2e926f3	-2.7142482e-08
89	0xb5de1106	-1.6545243e-06
90	0x34b949d3	3.451265e-07
91	0x34847ffb	2.4680034e-07
92	0x35216d40	6.0136153e-07
93	0x348ebdc5	2.6587637e-07
94	0xb52a11c3	-6.335578e-07
95	0xb6c8ef79	-5.9883428e-06
96	0xb2d4c54b	-2.4769767e-08
97	0x36429860	2.8996947e-06
98	0xb3c2e5a3	-9.0756e-08
99	0x338de156	6.6068125e-08
100	0xb61dc1b9	-2.3507585e-06
101	0x3589cc67	1.0266784e-06
102	0xb5a7c353	-1.2499316e-06
103	0xb5ede6cc	-1.7725047e-06
104	0xb5106604	-5.379263e-07
105	0x36848746	3.9496545e-06
106	0xb4f40dda	-4.545862e-07
107	0x348f807e	2.6729316e-07
108	0x3003bb71	4.792389e-10
109	0xb662cad3	-3.3794684e-06
110	0xb61c5ebd	-2.3300956e-06
111	0x35d50d8e	1.5873682e-06
112	0x35208f3b	5.981307e-07
113	0xb3146daf	-3.4558692e-08
114	0xb58bff39	-1.0430587e-06
115	0xb66bb2eb	-3.5121873e-06
116	0x36000c66	1.9080703e-06
117	0x35e90421	1.7361054e-06
118	0xb630208a	-2.6244984e-06
119	0x36274448	2.4924684e-06
120	0x33cc609e	9.517065e-08
121	0x3365cbc0	5.3503527e-08
122	0xb2ea2893	-2.7259636e-08
123	0xb49c8dcd	-2.9160438e-07
124	0x35b80d98	1.3713025e-06
125	0x36564639	3.192936e-06
126	0xb335fadf	-4.2370512e-08
127	0x362a941d	2.5418187e-06
128	0xbaae2e42	-0.0013288932
129	0xb9653b9e	-0.00021861351
130	0x3c8b6528	0.017016008
131	0xbc5002bf	-0.012695967
132	0x3b6d7afd	0.0036236637
133	0xb98c1deb	-0.00026725171
134	0x3c098b5b	0.008395041
135	0x3c500fd4	0.012699086
136	0xbc7ed45a	-0.015553558
137	0x3a05f004	0.00051093125
138	0x3cedb323	0.029016083
139	0xbc25f9bc	-0.010130342
140	0x3c9262f5	0.017869452
141	0xbcaa81c4	-0.02081383
142	0xba8f8871	-0.0010950697
143	0xb9291670	-0.00016125455
144	0xbc8003a0	-0.015626729
145	0x3a13c489	0.0005636891
146	0xbc356535	-0.011071493
147	0x3c9dbf5b	0.019256284
148	0x3bb920f7	0.0056496817
149	0xbbbc69ac	-0.0057499018
150	0xbaccedeb	-0.001563487
151	0xbc325a45	-0.01088578
152	0xb985f6b1	-0.00025551536
153	0xbcdb4b73	-0.026769375
154	0x3ad87d6b	0.001651687
155	0x3c110f51	0.008853749
156	0xb9bd6732	-0.00036125776
157	0x3a482fd0	0.0007636519
158	0xbcac2f67	-0.021018697
159	0xbc07e2f3	-0.008293855
160	0xb9c8d0b9	-0.00038302483
161	0xbc78ae57	-0.015178285
162	0xb9654962	-0.00021866479
163	0x3bb91edc	0.0056494307
164	0xbb82c654	-0.0039909277
165	0x37db8299	2.6167649e-05
166	0x3cc465fa	0.023974407
167	0x3ca7892b	0.020451149
168	0xba22a943	-0.00062050315
169	0x3bc77e80	0.006088078
170	0x3ca91ea6	0.020644497
171	0xbc899bdb	-0.01679795
172	0xb81a6d0c	-3.681802e-05
173	0xbb89f07e	-0.004209577
174	0xbc7afa9a	-0.015318537
175	0xbca1734e	-0.019708302
176	0xba4d909d	-0.00078416785
177	0x38c75b88	9.5061085e-05
178	0xbbea76df	-0.007155284
179	0xbcdcabe2	-0.026937429
180	0x3c6c7d9a	0.014434243
181	0x3c6c8f76	0.014438501
182	0xbb831ff2	-0.004001611
183	0xbc8070b8	-0.015678748
184	0x3b008a21	0.0019613581
185	0x39a00339	0.0003051998
186	0xb96e94f1	-0.00022752934
187	0x3c897a61	0.016781988
188	0x3a9d9e78	0.0012025377
189	0x3c3e8855	0.011629184
190	0x38ade49f	8.291867e-05
191	0x3cc517c6	0.024059188
192	0xb7936fa0	-1.7575745e-05
193	0xb62fb9a2	-2.6185085e-06
194	0xb75c78c2	-1.3141138e-05
195	0x37410dc8	1.1506905e-05
196	0xb618c32e	-2.2763375e-06
197	0xb51885ef	-5.681931e-07
198	0xb716e6dd	-8.994449e-06
199	0xb782311f	-1.5520081e-05
200	0x375b6c18	1.3078585e-05
201	0xb4c9965d	-3.754857e-07
202	0xb78395be	-1.5686146e-05
203	0x372e4211	1.03865905e-05
204	0xb78dd24c	-1.6906437e-05
205	0x379a9adf	1.8430348e-05
206	0x3779f39c	1.4898276e-05
207	0xb308504f	-3.1738008e-08
208	0x37586ab1	1.2899444e-05
209	0x3514b22f	5.539359e-07
210	0x371023d3	8.59141e-06
211	0xb72fed74	-1.0486099e-05
212	0xb7098266	-8.196197e-06
213	0x3734048f	1.0729897e-05
214	0x368685c3	4.009083e-06
215	0x3720cb71	9.584111e-06
216	0xb62bab2e	-2.5580625e-06
217	0x378087eb	1.532208e-05
218	0xb6c3f37c	-5.839798e-06
219	0xb7405dc5	-1.1465924e-05
220	0x363d2ab5	2.8188053e-06
221	0x3688ec2e	4.080611e-06
222	0x37837af2	1.5673668e-05
223	0xb7c543c2	-2.3515782e-05
224	0xb5dd5cbc	-1.6492772e-06
225	0x37b152b5	2.1138558e-05
226	0xb573e36e	-9.085551e-07
227	0xb7075f7c	-8.068859e-06
228	0x36ebb9f0	7.0251917e-06
229	0xb68710bc	-4.0252617e-06
230	0xb7a94504	-2.0178508e-05
231	0xb7b1d2c9	-2.1198199e-05
232	0xb6379d36	-2.7360634e-06
233	0xb6cbafc1	-6.070332e-06
234	0xb79ef200	-1.8947758e-05
235	0x378415f9	1.5745858e-05
236	0x338317b8	6.104477e-08
237	0x36c332e2	5.8173764e-06
238	0x3763b887	1.3573218e-05
239	0x37b0c9af	2.1074751e-05
240	0xb63f6d9d	-2.8525021e-06
241	0x34b44e4b	3.3584578e-07
242	0x3714446c	8.837418e-06
243	0x37824804	1.5530743e-05
244	0xb72dbc0b	-1.0355386e-05
245	0xb78f0a2f	-1.705167e-05
246	0x36a756ea	4.987106e-06
247	0x3713cea3	8.809994e-06
248	0xb6b3648c	-5.346321e-06
249	0x35324670	6.641267e-07
250	0xb405c926	-1.2459768e-07
251	0xb76689d3	-1.3741158e-05
252	0xb6468aac	-2.9585017e-06
253	0xb722a8fa	-9.695295e-06
254	0x338de1d7	6.606904e-08
255	0xb786373b	-1.5999763e-05

lstm.weight_hh_l1 f4 [256, 64]
0	0x3c1f6e75	0.009730925
1	0xb742bd78	-1.1607415e-05
2	0xbca83b7d	-0.020536179
3	0xb911891e	-0.00013879358
4	0xb9804834	-0.00024467858
5	0x3b8510cf	0.0040608416
6	0x3a9d0b07	0.0011981436
7	0xbbd7be0a	-0.0065839337
8	0x3a5fa833	0.00085318385
9	0x3c1254b4	0.008931328
10	0xb8a90a4b	-8.060465e-05
11	0xb6c7a89c	-5.950291e-06
12	0x3b35c727	0.0027737112
13	0x3b1934fa	0.0023377524
14	0xb9b7635b	-0.00034978506
15	0xbabc4177	-0.0014362772
16	0x3bac74ec	0.0052629616
17	0xbb9d89b0	-0.0048076734
18	0xbb38ad5d	-0.0028179504
19	0x3abaa01d	0.0014238391
20	0xba36f450	-0.00069791544
21	0xbc72af0a	-0.01481224
22	0xbb98a13f	-0.004657894
23	0xb836aa22	-4.355063e-05
24	0x3b406238	0.0029355418
25	0x385bd360	5.2410527e-05
26	0x3bab1d58	0.005222004
27	0x38ae4e3a	8.3115374e-05
28	0xbb921db5	-0.0044591078
29	0x3c15b94c	0.0091384165
30	0xbc82d12a	-0.015968878
31	0xbab31aff	-0.0013664662
32	0xb7f87b87	-2.9621426e-05
33	0xb5b7049a	-1.3635902e-06
34	0xbb9ef95d	-0.0048515038
35	0x3bfdd49c	0.0077462923
36	0x3cf25a26	0.029584002
37	0x3bec80c4	0.0072174985
38	0xbb78268a	-0.0037864768
39	0xbb094029	-0.0020942783
40	0xbbad5575	-0.0052897283
41	0x3bf8b435	0.0075898417
42	0xbc10bcab	-0.008834044
43	0x38e78a2c	0.00011040675
44	0xb6f5f0fc	-7.3296233e-06
45	0xb84b686a	-4.8496215e-05
46	0x3abf12b9	0.0014577723
47	0x37298307	1.0103692e-05
48	0xbba45549	-0.0050150496
49	0x3b4149dd	0.002949349
50	0xbb04e158	-0.0020275917
51	0x3bdf3b64	0.0068125
52	0xba21963d	-0.000616405
53	0x38fac8e9	0.000119583514
54	0xb8a0de2c	-7.670777e-05
55	0x3c4a5aee	0.012350781
56	0xbbd26d39	-0.0064217118
57	0x3883ab1e	6.27844e-05
58	0xbd2e1d93	-0.042508673
59	0xbd7b4225	-0.061342377
60	0x3b12821c	0.0022355383
61	0xb850369e	-4.964193e-05
62	0xbc2d617f	-0.010582327
63	0x3c789829	0.015172997
64	0xb66ea803	-3.556256e-06
65	0xb27de9ce	-1.4779699e-08
66	0x3683d80f	3.9292568e-06
67	0xb38de785	-6.607937e-08
68	0x356a722d	8.733794e-07
69	0xb4de0f09	-4.1361662e-07
70	0x341a6f2c	1.4382812e-07
71	0x35af48f7	1.3059752e-06
72	0x35f1fac1	1.8028878e-06
73	0xb6756800	-3.656838e-06
74	0xb42da974	-1.6173527e-07
75	0x3321f4f9	3.7708535e-08
76	0x36acf930	5.1550087e-06
77	0x35c9cf84	1.5036062e-06
78	0x35e2e4ab	1.6904863e-06
79	0x35660247	8.568499e-07
80	0x35cf5c8a	1.5449634e-06
81	0x35212875	6.0036047e-07
82	0xb51f76d0	-5.940501e-07
83	0xb4a6e855	-3.1088953e-07
84	0x34bc89d1	3.5118003e-07
85	0x36a7076a	4.977851e-06
86	0x362afccf	2.5479128e-06
87	0xb25d5c7a	-1.288492e-08
88	0x35a673be	1.2401649e-06
89	0xb31b4543	-3.6151743e-08
90	0xb68e5db6	-4.242839e-06
91	0x3306eb25	3.141317e-08
92	0x35df01d6	1.6615329e-06
93	0xb568a3b5	-8.666496e-07
94	0x35210630	5.998618e-07
95	0xb63f8a4f	-2.8541724e-06
96	0xb52c5339	-6.41961e-07
97	0x30a77c8c	1.2186248e-09
98	0x3528505c	6.2701815e-07
99	0xb565c430	-8.559464e-07
100	0xb37f714e	-5.9474864e-08
101	0xb4a0b452	-2.9933523e-07
102	0x354f48b3	7.72193e-07
103	0xb5e1752e	-1.679791e-06
104	0xb407cba1	-1.2646935e-07
105	0x366acc9b	3.4987813e-06
106	0x35acb99a	1.2869016e-06
107	0xb29ac55f	-1.8017714e-08
108	0xb2cde8f5	-2.3971078e-08
109	0xb437629b	-1.7079076e-07
110	0x3585bc4f	9.964077e-07
111	0xb3b80553	-8.569136e-08
112	0x35d9f999	1.6240402e-06
113	0x3605fe87	1.9966699e-06
114	0x3482944c	2.4322287e-07
115	0xb4f57563	-4.5720216e-07
116	0xb58151ca	-9.635053e-07
117	0x3216eeb1	8.785421e-09
118	0x35505821	7.761428e-07
119	0xb624c1fb	-2.4550816e-06
120	0x330fc69e	3.3475423e-08
121	0x32e149be	2.6226981e-08
122	0xb690b759	-4.312879e-06
123	0xb649e5f3	-3.0085182e-06
124	0x35d863d5	1.6122309e-06
125	0xb30ae6a5	-3.23404e-08
126	0x34f9affb	4.6507907e-07
127	0xb692e537	-4.377823e-06
128	0x3b61f750	0.0034479685
129	0xb905aa28	-0.00012747257
130	0xbd039232	-0.032121845
131	0x390584fb	0.00012733407
132	0xbb64305b	-0.0034818861
133	0x399cb4b3	0.0002988927
134	0xba2d9fb3	-0.00066232233
135	0xbc5d091e	-0.013490943
136	0xbc4532c2	-0.012036027
137	0x39d2e18a	0.0004022236
138	0x37e38e83	2.7126871e-05
139	0xb8117ccc	-3.468692e-05
140	0xbc126349	-0.008934804
141	0xbb66bef5	-0.0035209034
142	0x38c287e7	9.275955e-05
143	0x3ab32cf9	0.0013670019
144	0x3aee7a9c	0.00181945
145	0xbba04476	-0.0048909737
146	0x3b39992c	0.0028320057
147	0x3a40de24	0.000735732
148	0x3b92add1	0.004476287
149	0xbc8949a1	-0.016758742
150	0x3bd1ef10	0.0064066723
151	0xb8dfebbe	-0.00010677379
152	0xbb4fbf32	-0.0031699655
153	0x3beea7ab	0.007283171
154	0x3c65e1d3	0.0140308915
155	0x393ffd3a	0.00018309514
156	0x3c2ffeb6	0.01074188
157	0x3c2b42f0	0.010452971
158	0xbca9d7eb	-0.02073284
159	0x3bbb289a	0.005711627
160	0x39c8108c	0.000381593
161	0x386715ff	5.5095177e-05
162	0xbbabafef	-0.005239479
163	0x3bf739ac	0.007544717
164	0x3d375156	0.044755302
165	0x3be734e7	0.007055867
166	0x3adbb1ee	0.0016761401
167	0x3be869e8	0.007092703
168	0xbaeb2862	-0.0017941112
169	0x3c44a03c	0.0120010935
170	0xbc0c0313	-0.008545655
171	0x39285593	0.00016053607
172	0xb8d0de73	-9.959647e-05
173	0x39520f38	0.0002003283
174	0xbc4706f9	-0.0121476585
175	0xb943b2f1	-0.0001866331
176	0xbc02cf81	-0.007984043
177	0xbc18fe02	-0.009337904
178	0x3bf23708	0.007391814
179	0x3c5aa015	0.013343831
180	0x3c827360	0.015924156
181	0x399d8437	0.0003004388
182	0xbaf991c5	-0.0019040635
183	0x3c742993	0.01490249
184	0x3b0a8a46	0.0021139546
185	0x39ace620	0.00032977853
186	0xbd8fc17a	-0.070193246
187	0xbde832f5	-0.11337844
188	0xbc1f117b	-0.0097087575
189	0x377583b9	1.4633807e-05
190	0xbbc96e15	-0.006147156
191	0x3c5a914f	0.013340308
192	0xb7e1b543	-2.6906497e-05
193	0x320d2a50	8.216901e-09
194	0x380c69d9	3.347718e-05
195	0xb595bd56	-1.1156469e-06
196	0xb5444e18	-7.312933e-07
197	0xb781c5bd	-1.5470077e-05
198	0xb6b9b77a	-5.534789e-06
199	0x37b02a26	2.1000462e-05
200	0xb75b0848	-1.3055345e-05
201	0xb7e3e0ab	-2.7165128e-05
202	0xb593cd17	-1.1012042e-06
203	0x35328448	6.650266e-07
204	0xb6f572f4	-7.3149513e-06
205	0xb6de7e8d	-6.630848e-06
206	0x373aa21f	1.1124211e-05
207	0x3740c24e	1.1489332e-05
208	0xb7731bca	-1.4490399e-05
209	0x3789e8ea	1.6440132e-05
210	0x3743ce67	1.16709625e-05
211	0xb6e7e9fd	-6.9115763e-06
212	0x36cadd58	6.045837e-06
213	0x38040a36	3.1480762e-05
214	0x37a511a8	1.9677755e-05
215	0xb4058373	-1.2434411e-07
216	0xb76761fd	-1.3791488e-05
217	0x36e5b305	6.8455724e-06
218	0xb7c5f1bc	-2.3596796e-05
219	0x3471f10c	2.2532566e-07
220	0x37b0cd3c	2.1076405e-05
221	0xb7a7da7e	-2.0009695e-05
222	0x37e19666	2.6892125e-05
223	0x3683c994	3.927571e-06
224	0xb588c07f	-1.0188813e-06
225	0xb3350a94	-4.2151967e-08
226	0x37806522	1.5305883e-05
227	0xb7aad2a6	-2.036367e-05
228	0xb834cb25	-4.3104537e-05
229	0xb7a14983	-1.9226927e-05
230	0x3787556c	1.6133032e-05
231	0x3716d79f	8.9909e-06
232	0x378ebb46	1.7014925e-05
233	0xb744722d	-1.1709094e-05
234	0x37b45210	2.1495885e-05
235	0xb3f72a5d	-1.15095396e-07
236	0x3484bd25	2.4724537e-07
237	0xb5c551d3	-1.4701458e-06
238	0xb777b087	-1.4763448e-05
239	0x33d92591	1.0111683e-07
240	0x379556e7	1.7802651e-05
241	0xb73d8a2c	-1.12974485e-05
242	0x371f96c5	9.512242e-06
243	0xb79ee49b	-1.894152e-05
244	0x3760033a	1.3352192e-05
245	0x34557cff	1.9882644e-07
246	0x3509fa9a	5.140115e-07
247	0xb7e892c0	-2.7724891e-05
248	0x37a6b05d	1.9870868e-05
249	0xb41f47ed	-1.4834195e-07
250	0x383f2711	4.5574332e-05
251	0x38a443f7	7.832789e-05
252	0xb73b1c99	-1.1152727e-05
253	0xb525781c	-6.164207e-07
254	0x37ca989e	2.4151344e-05
255	0xb80799d4	-3.232977e-05

lstm.bias_ih_l1 f4 [256]
0	0x3cdf43fa	0.027254093
1	0xb884de33	-6.335638e-05
2	0xbdbcc943	-0.09218075
3	0xba5b6120	-0.000836866
4	0xbd302403	-0.043003093
5	0xbc9d8dc2	-0.019232634
6	0xbc958108	-0.018250003
7	0xba2c1438	-0.0006564292
8	0x3db1bd60	0.086786985
9	0xba01ba91	-0.000494876
10	0xb8dd71bc	-0.00010559286
11	0xb9e35ac0	-0.00043364428
12	0xbd734bae	-0.059398346
13	0x3c45b4bf	0.012067019
14	0xbcdd026a	-0.02697869
15	0xbcc21320	-0.02369076
16	0x3c40fdef	0.0117792925
17	0xbceb0137	-0.028687103
18	0x3cc6fd9f	0.024290858
19	0xbb200288	-0.0024415571
20	0xbc894ad0	-0.016759306
21	0xbc572e23	-0.013133558
22	0xbd237d74	-0.039914563
23	0xbaca5528	-0.0015436755
24	0xbbe4c924	-0.0069819856
25	0x3cb6b8b0	0.022304863
26	0xbd8b6b7a	-0.06807609
27	0xb8968fad	-7.179319e-05
28	0x3d93e44d	0.07221279
29	0xbd4b61a5	-0.049653668
30	0xbd46c9c0	-0.048532248
31	0xbd5c80b8	-0.053833693
32	0xbbb695c4	-0.0055720527
33	0xb78a6b1b	-1.6500757e-05
34	0xbda65fe4	-0.081237584
35	0x3d003627	0.031301644
36	0xbda6dd5b	-0.08147689
37	0x3b95c903	0.0045710816
38	0xbc20a52f	-0.009805008
39	0x3d09deda	0.033659793
40	0x3d207bce	0.03918057
41	0xbdb781d3	-0.08960309
42	0x3d13ca6c	0.036081716
43	0xb99d80cc	-0.00030041335
44	0xb8eae959	-0.00011201454
45	0x3aa0404d	0.0012226194
46	0x3d054e55	0.032545406
47	0xbb0fa95b	-0.0021921012
48	0x3d05f776	0.0327067
49	0x3c73dff6	0.014884939
50	0xbca7adec	-0.020468675
51	0x3d95c5de	0.07313131
52	0xbd3bddbf	-0.04586577
53	0xb9003052	-0.00012225032
54	0xbcbb0668	-0.022830203
55	0x3da03ae1	0.0782373
56	0x3c07a1c1	0.008278311
57	0xbaada6d5	-0.0013248572
58	0x3db524bc	0.08844897
59	0xbd59f606	-0.05321314
60	0x3d203951	0.03911716
61	0xba0aa410	-0.00052887294
62	0x3bc3edb3	0.0059792637
63	0xbda46ec7	-0.080289416
64	0xbc85918e	-0.016304757
65	0xb873ff5e	-5.8173544e-05
66	0x3dbc226b	0.09186252
67	0xb91c8d6f	-0.00014930007
68	0xbcb674cd	-0.022272492
69	0x3c84845c	0.016176395
70	0xbc8f54d9	-0.017496513
71	0xbcbd7bcb	-0.023130318
72	0x3dd7922a	0.105259255
73	0xbd9075ad	-0.07053695
74	0xba5343b1	-0.0008059098
75	0xb9b0f622	-0.0003375272
76	0xbdb620de	-0.08892988
77	0xbd18e25f	-0.03732526
78	0xbbd995c5	-0.0066401684
79	0xbc4547c4	-0.012041036
80	0x3c2f4cc1	0.010699452
81	0x3d3a5f30	0.045500934
82	0x3d2dc40f	0.042423304
83	0xba9318bc	-0.0011222581
84	0x3bd69699	0.0065487144
85	0xbcce4072	-0.025177214
86	0xbccf61b0	-0.025315136
87	0xb9f38a21	-0.00046451486
88	0x3c649f39	0.013953977
89	0xbcef1851	-0.0291864
90	0x3d028c51	0.031872097
91	0xb85c60fc	-5.254241e-05
92	0x3bd92240	0.0066263974
93	0x3d8af81f	0.067856066
94	0xbd03a395	-0.032138426
95	0xbcb310c7	-0.021858586
96	0xbbf2adb7	-0.0074059623
97	0xb7159726	-8.916284e-06
98	0xba95863e	-0.0011407805
99	0x3dc7c70a	0.097547606
100	0xbd2d5572	-0.042317815
101	0xbc8e6543	-0.01738227
102	0x3cd5d171	0.026100846
103	0xbd5c7786	-0.053824924
104	0x3d0cd22f	0.034380134
105	0x3d428f3f	0.04749989
106	0xbcc4e49e	-0.024034794
107	0xb98b547a	-0.00026575086
108	0xb8c9935c	-9.611875e-05
109	0xbad0ce3f	-0.0015930607
110	0x3d6d9adb	0.05800901
111	0x3a8e8465	0.0010873197
112	0xbcc5d73c	-0.024150483
113	0xbc8218ee	-0.015881028
114	0x3bcbee9f	0.006223514
115	0x3d83ccf0	0.06435573
116	0x3d566007	0.052337673
117	0xb8bae603	-8.912014e-05
118	0xbad07530	-0.0015904065
119	0x3c86d212	0.016457591
120	0x3d44f395	0.04808386
121	0xba529034	-0.0008032352
122	0x3d45ca67	0.04828873
123	0xbc97c3e9	-0.018526034
124	0x3d04d79d	0.032432187
125	0xb9056851	-0.0001272273
126	0x3ce87a2e	0.028378572
127	0x3d8fd179	0.070223756
128	0x3d8542d6	0.065068886
129	0xbd448b62	-0.04798449
130	0xbdca1552	-0.09867348
131	0xbd4312fd	-0.04762553
132	0x3cc73153	0.024315512
133	0x3dee4cc1	0.116357334
134	0xbd1b2eb7	-0.037886348
135	0x3da89ada	0.082326606
136	0xbcef4311	-0.029206784
137	0x3dac381f	0.08409142
138	0xbc754617	-0.014970324
139	0xbccae3a8	-0.024766758
140	0xbd68d515	-0.056843836
141	0xbd3fd3e5	-0.046832938
142	0x3cd1df60	0.025619209
143	0xbde2a110	-0.110658765
144	0x3d67b96a	0.05657331
145	0x3d877139	0.066133924
146	0xbd27f4d7	-0.04100498
147	0x3dc54ee1	0.096341856
148	0xbc762b83	-0.015025022
149	0xbdca60d6	-0.09881751
150	0xbcc871c0	-0.024468303
151	0x3ce32124	0.027725764
152	0x3d92ef24	0.07174519
153	0xbd888a55	-0.0666701
154	0x3d681ed6	0.056670032
155	0xbd32d3e1	-0.043659095
156	0xbd91755e	-0.07102464
157	0x3c833316	0.01601557
158	0xbd45f81d	-0.048332322
159	0x3d8a9e32	0.067684546
160	0x3c0f2c43	0.00873858
161	0xbc0a1793	-0.008428472
162	0xbd86f71e	-0.065901026
163	0x3c7e90f1	0.015537486
164	0x3d2cd26e	0.04219287
165	0xbd589d72	-0.052884527
166	0x3ccc0bdd	0.024908
167	0x3cc38190	0.023865491
168	0xbc0dd5fe	-0.008656977
169	0xbd7a6d55	-0.061139423
170	0xbdfa7ee9	-0.122312374
171	0x3bc39dd4	0.0059697423
172	0xbd2c5835	-0.04207631
173	0x3c4b757a	0.012418145
174	0x3ddd3ea5	0.10802964
175	0x3c0fd6ce	0.008779241
176	0xbda66296	-0.081242725
177	0xbcab131b	-0.020883134
178	0x3db2e165	0.08734397
179	0x3d3968d4	0.045265988
180	0x3b1589fb	0.0022817838
181	0xbc1b1eb2	-0.009467768
182	0xbd255dab	-0.04037253
183	0x3d7a19d4	0.061059788
184	0x3d0a5de5	0.03378095
185	0x3d9aaaf2	0.075521365
186	0x3ded1d3f	0.11577844
187	0x3cc30a8e	0.023808744
188	0x3d7e7aad	0.06212871
189	0xbd0c6651	-0.034277264
190	0x3d819288	0.06326777
191	0x3d89ee3d	0.067348935
192	0xbdaadae0	-0.08342528
193	0xb889351d	-6.542562e-05
194	0x3dc07d4b	0.09398898
195	0xb9de5d14	-0.00042412488
196	0xbd257f6b	-0.04040472
197	0xbcbe8254	-0.023255505
198	0xbb3a80bb	-0.0028458077
199	0xbcd49f3b	-0.025954833
200	0xbc763ef8	-0.015029661
201	0x3cd54b25	0.026036808
202	0xba6f516e	-0.00091292604
203	0xba304d76	-0.000672541
204	0x3d8ca8be	0.068681225
205	0xbc2ce668	-0.01055298
206	0xbaa796f0	-0.0012786072
207	0xbca84c86	-0.020544302
208	0x3d7d54f9	0.061848614
209	0x3d880cdc	0.06643078
210	0x3c84ba7c	0.016202204
211	0xbc63e61f	-0.013909846
212	0xbbbe4915	-0.005807052
213	0xbd432f46	-0.047652505
214	0xbd2b1c87	-0.041775253
215	0xbae1a4a6	-0.0017215207
216	0x3d41a3eb	0.047275465
217	0xbc423472	-0.011853324
218	0x3d3b63cd	0.045749474
219	0xb8c21eb5	-9.2563605e-05
220	0x3d3fe908	0.046853095
221	0x3d303425	0.04301848
222	0x3cf57359	0.029962229
223	0xbd63c127	-0.055604126
224	0xbc5ac94a	-0.013353655
225	0xb7990113	-1.8239522e-05
226	0xbd54089c	-0.051766023
227	0xbc72c6e4	-0.014817927
228	0x3dc0f470	0.09421623
229	0xbc748694	-0.014924664
230	0x3ce74925	0.02823312
231	0xbd873b45	-0.06603102
232	0x3cabdaad	0.020978296
233	0x3d4860fd	0.04892062
234	0x3d078205	0.03308298
235	0xb992d5ce	-0.00028006587
236	0xb9259cd6	-0.00015794052
237	0x3a318151	0.0006771284
238	0x3d43853d	0.047734488
239	0x3abbae8f	0.001431899
240	0xbbf7ce67	-0.007562447
241	0xbd396514	-0.04526241
242	0xbc8e11d3	-0.017342484
243	0x3d509e56	0.05093225
244	0x3d1cf3b6	0.03831836
245	0xb9032b08	-0.00012509164
246	0xbb395e77	-0.0028285065
247	0x3d133061	0.03593481
248	0x3d856df6	0.06515114
249	0xbb764f2a	-0.0037583807
250	0xbd3fb11d	-0.046799768
251	0x3da2d90c	0.07951555
252	0x3ca61207	0.020272268
253	0xb9960652	-0.00028614938
254	0xbc79c615	-0.01524498
255	0xbd91f8cc	-0.07127532
