07_autoencoder/weights/best_weights.pth (torch, 897855 bytes, 16 tensors)

encoder.0.weight f4 [128, 784]
00000000: 3a91 373e 2a44 96bd bc77 10be 9bfc 073e
00000010: 0544 db3d 6079 213e 4b34 f0be d7c2 a9bd
00000020: 3603 13bf a60e 03bf 54de 7f3d a5ee 443d
00000030: 3af5 993d 48cb 3cbe b4f7 68be f7ab 14be
00000040: 594f 81be a5dd 87be 53d2 a8be 75bf 5fbe
00000050: 431f babe e111 d3be b7b5 27be 0e73 ecbb
00000060: 61e2 96be c584 6cbe 114f 01bd d0e6 f33c
00000070: 17f8 2a3e fea9 dcbd 0ed5 ccbd 6901 dfbd
00000080: ff73 80bd e346 9bbe 732b f6bd bf07 5ebd
00000090: fdb0 b2be 05da 3cbe 0b38 c13d c06d b23d
000000a0: 2421 093e 72fd 233b 71c1 533e 2a1e 683e
000000b0: d486 bebe 3797 38bf 37b9 d8be d759 03bf
000000c0: c888 15bf cfa9 2dbf 39e2 d6be c948 57be
000000d0: 1904 6a3e a4fa c03d a4c8 033e e264 8eb9
000000e0: ae75 f9be 3df5 7fbe 4375 15be f9c7 9cbc
000000f0: 259d d83d 8268 523d 0db9 7c3d 787d b83c
00000100: a8f5 cbbd a00d 8e3c eb69 ab3d 62b6 603d
00000110: 174e 133d 72d2 89bd bf33 a73d f6bb 9e3d
00000120: fb48 07be f4e6 8bbe ae4b 92be 7893 37be
00000130: ae6d 85be 000a d0be 14b3 f8be 2f3a 6fbe
00000140: ab5b b63e ef21 0d3f 9ef7 88bd 0f9f 273e
00000150: 8842 c7bd 3c60 2ebe dc9d d4be 31e6 a2be
00000160: 9191 97bd 4e9a 6a3e 16ff 313e 219f fb3e
00000170: 628a 1a3e 64e5 953d 1c35 87bc 7112 203c
00000180: f856 563c 1c08 75bd 9e6f 51bd 7d30 1e3d
00000190: 3db0 2a3e dab5 f03c 1e87 5fbd 1bd9 083e
000001a0: f314 0e3e 26a3 d3bd 1c2a c4be 92ef 85be
000001b0: 04fb 303e c14f b83e 828d fbbd 6b2d 413e
000001c0: bf19 7fbe 3bc8 17bf bfae fabe e796 70be
000001d0: dc74 0d3c 98e4 373e ce12 983e ce53 e53e
000001e0: a3fc e93c 91ee a8bd 540e 7cbc b7ab 423d
000001f0: 206f c3bc d911 04be bfd1 c5bc 526b 2d3e
00000200: 76ce b53e fd73 c63d c5ac c1bd d734 673e
00000210: f526 843e 317c a13e c5f0 d1be 7773 02bf
00000220: 5530 30be 2ff5 6e3e 79f7 1c3f f250 23be
00000230: 2a73 e03d 27f8 a4be 1aaa d93c 6986 c33d
00000240: cdcb 443d f717 b93e 43fa 7d3e c12b 9d3e
00000250: 4dc2 07be ef68 a7bd 3504 8ebd b45b 873b
00000260: 85ec ccbd 42b1 48bd a94a c93b d0d5 903d
00000270: ff43 ad3e f2e6 9a3e 328d 9d3d 0ba2 643d
00000280: 9f7c 103e 96ce 403e a6d1 79be 7ba9 4fbf
00000290: b519 bdbe c93c 6d3e 88af d23e 1aa1 143f
000002a0: 976a 1fbe c91f 90be 25b6 ddbd 4a94 8dbe
000002b0: 429c e23e 7ff0 a73e af5c b33e 8e57 3d3e
000002c0: 914d 47be 3f1e 86bd 8d57 093e fab4 1f3d
000002d0: 1c90 4fbe 8a3e 03be 6111 b63d 2720 173d
000002e0: 0a24 9b3e 4cd5 b73e 1d0e 6c3e 18d2 7b3e
000002f0: e5e5 483e 0c92 2c3e 7e2a fa3b e9ff 0abf
00000300: 9410 c0be 9026 e8bc 2b81 523f 5cf6 d73e
00000310: 2c7e afbd 8e38 ebbd a4cd 2fbe 3a83 29be
00000320: 2a72 083f c02e c83e 1042 c03e eba4 a83e
00000330: 28e9 423d 2dd5 15be 0633 0d3e 959e b1bd
00000340: 787f 71be 3c74 dbbc 97e7 8a3d a976 103e
00000350: bd05 6e3e 52ff 693e 45f5 2c3e 67a9 843e
00000360: 970d 9c3e 6d42 cc3d 8395 5b3c 7b23 febe
00000370: 1521 0dbf 2c45 a4be bb29 c03e cd7a 293d
00000380: e636 92be e477 31bd 59c8 bdbd fadb 11be
00000390: 1859 103f 90b0 513e 6ac7 163e 8665 983e
000003a0: dde8 dc3d a4c6 19be 71fc 063e 0395 e1bd
000003b0: d69b 1fbe d36d 95bd 6765 11be e194 573d
000003c0: 7fc9 bd3d c15b 933e 0df6 ab3e 3a05 673e
000003d0: f5c1 b63e aa43 193d d868 1fbe 72e8 a3be
000003e0: dd63 cfbe 1f4d e0be 22a6 9c3e 62f1 2d3e
000003f0: 651a 89be b01e b2bd 0acc f8bd 26fe d5bb
0.17926493 -0.0733722 -0.14108175 0.13279955 0.10706333 0.15768957 -0.46914896 -0.08289116
-0.57426775 -0.51194227 0.062467888 0.04807915 0.075174764 -0.1843692 -0.22750741 -0.14518724
-0.2525585 -0.2653629 -0.32972965 -0.21850379 -0.36351976 -0.41224578 -0.16377912 -0.007215864
-0.29469588 -0.23097523 -0.031569544 0.029773146 0.16696201 -0.10774611 -0.100015745 -0.10888941
-0.062721245 -0.3032752 -0.12020006 -0.054206606 -0.34900656 -0.18442543 0.094345175 0.087123394
0.13391548 0.0025022891 0.20679261 0.22667757 -0.3721224 -0.72105736 -0.42328808 -0.5130896
-0.58411837 -0.6783723 -0.4196947 -0.21023859 0.22853126 0.09422806 0.12869507 -0.00027159514
-0.48722595 -0.24995895 -0.14595513 -0.019138323 0.10576848 0.051369198 0.061699916 0.022520766
-0.099589646 0.017340481 0.083698116 0.054861434 0.035963144 -0.067295924 0.08164167 0.077506945
-0.13211434 -0.2732464 -0.28573364 -0.17927349 -0.2606024 -0.4063263 -0.48574126 -0.23362039
0.35616812 0.55129904 -0.06687854 0.1636927 -0.09729487 -0.17028898 -0.41526687 -0.31816247
-0.074008115 0.22910425 0.17382464 0.49144843 0.15091851 0.073191434 -0.016504817 0.009770022
0.013082258 -0.059822187 -0.051131837 0.03862046 0.16668792 0.029383589 -0.054572217 0.13364069
0.13875179 -0.103338525 -0.38313377 -0.2615934 0.17283255 0.35998347 -0.1228285 0.18864982
-0.24912165 -0.592899 -0.48961446 -0.23495065 0.0086338185 0.17958295 0.29701847 0.447905
0.02856285 -0.08248628 -0.0153842755 0.04752704 -0.0238567 -0.12897433 -0.024147866 0.1693547
0.3550908 0.09690092 -0.09456781 0.2257875 0.25810972 0.31540063 -0.41004005 -0.50957435
-0.17205937 0.23335718 0.61315113 -0.15948847 0.10959466 -0.32220575 0.026570369 0.09547121
0.048045922 0.36151096 0.24802499 0.30697444 -0.13257714 -0.08174311 -0.06934396 0.004130805
-0.1000605 -0.04899717 0.0061429334 0.070720315 0.3384094 0.30254322 0.076929465 0.0558186
0.14110039 0.18828806 -0.24396381 -0.8111798 -0.36933675 0.23167719 0.41149545 0.5805832
-0.15568005 -0.2814925 -0.10825757 -0.27652198 0.4425984 0.3280067 0.3503165 0.1849043
-0.19463183 -0.06548738 0.13412304 0.038990952 -0.20269817 -0.12816826 0.088900335 0.036895897
0.30300933 0.3590492 0.23052259 0.24591863 0.19618948 0.16852587 0.00763446 -0.5429674
-0.37512648 -0.0283387 0.82228345 0.42180145 -0.08568987 -0.11485396 -0.1716829 -0.16553965
0.532992 0.39098167 0.37550402 0.32938322 0.047585636 -0.14632101 0.13788995 -0.08672825
-0.23583782 -0.026788823 0.067824535 0.14107765 0.23244376 0.22851303 0.16890438 0.25910494
0.30479118 0.09973607 0.013402346 -0.49636444 -0.55128604 -0.32084024 0.37531838 0.041376878
-0.2855751 -0.043327227 -0.09266729 -0.1424407 0.56385946 0.2047751 0.14724508 0.29764956
0.10786603 -0.15017182 0.13182236 -0.1101475 -0.1558679 -0.07296338 -0.14198838 0.052632216
0.09266948 0.2878094 0.3358616 0.22560588 0.35694852 0.037418045 -0.15567338 -0.3201328
-0.40505877 -0.4380884 0.305955 0.16986611 -0.2677795 -0.086972594 -0.12148292 -0.006530541

encoder.0.bias f4 [128]
00000000: e4c5 e23d e721 54bd a179 9abc b175 7cbc
00000010: 0b1e 52bd 6041 b2bf 08ac 53bf ed5e 46bd
00000020: 05d9 9d3e 1a42 7abe d323 a2bc be5b 4cbd
00000030: b91d 3bbf 94bd 3abf f702 cdbc a722 29bd
00000040: 6e2c f3bc 7f3d 63bd 6bd0 5bbd b91f afbe
00000050: 25fe 0ebd f38c 44bd 1a48 4fbd ba95 43bd
00000060: c759 573e 60df 3fbd c5ef 8dbc eb77 18bd
00000070: 3371 01be 3210 1cbd 56f0 5fbe aebe 32bf
00000080: cb08 9d39 c4a0 dfbe c357 82be 7263 bdbc
00000090: d91e 553d 6aad 9bbf a3bc 6ebf 6983 61bd
000000a0: 8499 483e 5d9c 9c3e fe6d 3cbd 6a0a 9ebc
000000b0: 143c 963b 2f09 10bb 18a9 a0be 54a1 73bc
000000c0: ff0d 99be d0db c6be 3fb9 39be 2a0a 49bd
000000d0: 1895 81bf 0a05 44bd 7547 8d3e fa62 32bd
000000e0: c7d5 ffbc 5cb0 77bd 7501 a6bf d98e cbbe
000000f0: 4836 5ab7 4895 2bbf 2b81 43bc 61f8 2cbe
00000100: dd8e 86bf f2bb c2bf 68e0 99bc 84e2 81bf
00000110: f034 d9bf 8d57 dabc 6000 f4b9 43dd a63b
00000120: 998b c8bd 9f41 05c0 ef0c 10bd 6327 1dbf
00000130: e850 b13f e207 24bf 5056 35bd dd83 32bd
00000140: f731 03be 6052 16bd 45a7 24bd f6fd e03d
00000150: cda4 06bd f285 7ebf 2a41 4bbd a8a1 6cbd
00000160: 633f cabc e57f 4dbd a3e1 e4bd 6dbf 90bd
00000170: 718e 9c3e 8b46 5bbd 24a0 f1bc 54e1 72bd
00000180: 281f cdba e3ee 5ebc 954d c0bc 2160 a7bc
00000190: 361c 0bbd d130 10bf 7753 873b b13e 063e
000001a0: 0ac9 b5bf 16db 4abf 7106 643a a02c c9bc
000001b0: e1af 01bf 640e 8fbc 14e5 05bd 949d 9abc
000001c0: 2dd3 55bd c81e 9bbc d5c0 d83c eb0b 8abc
000001d0: ee4f 5fbf 20a2 8abc 2aa7 7cbc f7f2 56bf
000001e0: 38d7 00bd 748e dfbe d820 0fbd 0e1a 6cbf
000001f0: 3427 cfbe 91fb 283e b2fa 2ebf 6b3b 11bd
0.11072901 -0.051790144 -0.018856825 -0.015408919 -0.051298182 -1.3926201 -0.82684374 -0.048430372
0.30829635 -0.24439278 -0.019792473 -0.04989218 -0.7309223 -0.72945523 -0.025025828 -0.041292813
-0.029684272 -0.05547857 -0.05366556 -0.3420389 -0.03491034 -0.047985982 -0.05060587 -0.047750212
0.21030341 -0.046843886 -0.017326245 -0.037223738 -0.12640838 -0.038101383 -0.21869025 -0.69822204
0.00029951925 -0.43677342 -0.25457582 -0.023118708 0.05203137 -1.2162297 -0.93256587 -0.055056963
0.19589812 0.30588046 -0.046003334 -0.019292075 0.0045847986 -0.002197813 -0.31379008 -0.014870007
-0.2989349 -0.3883958 -0.18137072 -0.04908196 -1.0123625 -0.047856368 0.2759358 -0.043551423
-0.031229867 -0.060470924 -1.2969195 -0.39757422 -1.3006451e-05 -0.6702466 -0.0119326515 -0.16891624
-1.0512348 -1.5213606 -0.018783763 -1.0147252 -1.696928 -0.026653076 -0.00046539586 0.0050922944
-0.09792251 -2.0821302 -0.035168584 -0.61388224 1.3852816 -0.6407453 -0.044271767 -0.043582786
-0.12812029 -0.036699653 -0.040198583 0.10985939 -0.03287201 -0.99423134 -0.049622692 -0.057771355
-0.024688428 -0.050170798 -0.11175849 -0.070677616 0.30577424 -0.053534072 -0.029495306 -0.05929692
-0.0015649544 -0.01360676 -0.023474494 -0.02043158 -0.03396245 -0.5632449 0.004129823 0.13109852
-1.4201977 -0.7924055 0.00086984696 -0.024557412 -0.50658995 -0.017462917 -0.03268917 -0.018873967
-0.052203346 -0.018935576 0.026459137 -0.016851386 -0.8723134 -0.01692301 -0.015420714 -0.83964485
-0.03145525 -0.4366337 -0.03494343 -0.92227256 -0.40459597 0.16502215 -0.6835128 -0.035457056

encoder.2.weight f4 [64, 128]
00000000: f47e 02be 9634 e33b 504a a93c a666 853c
00000010: 87c9 b4bd 35b3 83bd 04fe 83bd ea1d 8b3c
00000020: ad8e b9bc 1db5 85bc cc69 0ebd a4ef edbd
00000030: fd19 f7bd 74c5 90bd fbb4 c73c 9b0a 61bc
00000040: e087 233d e177 24bd f004 a53b 0330 b43c
00000050: 6ed1 4d3d 5bb6 e4bc 5329 90bd 7fcb d53b
00000060: 1610 a1bd e906 80bd e81e 9b3d 983f c3bd
00000070: 5c05 e13c 9c9b 03bc d3e2 f6bd facf 76bc
00000080: 3c82 92bd df7f f2bd 32f6 81bd c23c b1bd
00000090: 455c ef3a 39c5 67bc f344 ad3c 0127 7cbd
000000a0: ff61 91bd d63c 0fbe 93d0 693c ca60 ae3c
000000b0: 441d 2a3d 70a2 313d 9b65 10bb 735b 493d
000000c0: 0f87 f93c 4e30 b6bd e86b 15bd 909e 9e3c
000000d0: 1b66 bfbd eb34 dcbd af07 66bd aa86 0cbd
000000e0: ae79 5a3c 2965 fdbc 2741 5abd e194 88bd
000000f0: f871 5a3d 7a1e 613c a81c 683d efdd a1bd
00000100: ee67 09bd 1fae d8bd da28 873c 4bcb 96bd
00000110: 89d3 95bd 332b a8bd e1e7 ca3c 97c1 423d
00000120: c4c7 c43c 5e29 ffbc bfb4 dfbd 0b40 03be
00000130: dfe7 09bc 8af7 95bd a5e1 c6bd 5ccb d8bd
00000140: a21e 1f3d bd54 74bd 5867 90bd 769a bbbd
00000150: 601d 393d 565f 003c 1083 d1bd 70ad b2bc
00000160: c121 d7bd de72 ce3b dce4 5bbd 954a b4bc
00000170: bf9d e0bd 5865 7a3c 2eee 053d 939f 6f3d
00000180: 1721 87bd a7bd 11bd c4ec d3bd 3c71 953d
00000190: 48be 94bd b842 a7bd cde5 4fbd 0bbf 7abd
000001a0: ca47 a9bd 705a 8ebd 74bd 2abd 28b9 1f3d
000001b0: 2647 ddbd 4b96 82bd ee25 853d 0591 b6bd
000001c0: 2d9e fe3c 4852 3f3c 6b4a a0bc 6d20 75bd
000001d0: 30c2 b4bc 276e 123d f7b4 bb3c 29a6 febd
000001e0: 7628 8dbd d526 bebd 1aea 3fbd a4a4 06bd
000001f0: 543c a1bd 2404 f3bc 80ec 413d bc78 823d
00000200: 94eb 243d 4447 053d cb97 853d 43ab 81bd
00000210: aade 3dbd 309a 8b3e 80f5 cf3d 6b84 e63b
00000220: 07ba ed3d f493 213c fa3b 7ebd cefc d73c
00000230: 68a0 86be 9ddb b6bc ea10 d0bc dc98 76bd
00000240: 4c40 d6bc 18ea 5f3b ed83 563d 4d3f 0d3e
00000250: 62d8 e13b 4470 803d df18 913c 7500 0ebd
00000260: 91f7 8fbd 0f83 96bc ff3c 88bc bc55 903d
00000270: 5c19 1bbe 7341 d93d d1ac 03be b9df 6e3e
00000280: 62fe 31bd f6d3 093d fc7d 91bd 2522 753d
00000290: 9290 813e 2396 a83d d237 263d 9f3e 89bd
000002a0: ea74 11be 951b 463e c84b 673d ca5e 43bd
000002b0: e2b8 e03c 6875 83bc e0ba 48be edc5 a63d
000002c0: 65d5 0cbf d76f 97bd abb1 1abe 8b94 543c
000002d0: beb8 e83d bb06 1b3d 97b8 263e ed5b 03bd
000002e0: 5dc8 4dbd d1d1 7bbc a3f9 3cbe 120a 30be
000002f0: fced 2fbd c060 53b7 7be8 3ebd de3c 24be
00000300: 745f bd3d 3ebd bd3c 88cc aabd 37c4 65bd
00000310: d180 96be 90d7 4b3c 99dd 5dbd 6306 5cbd
00000320: f881 47be c66d ccbd 58d0 693d bfd9 343d
00000330: cc8d 0ebf 1ff8 a23e df3e 46bd 5d25 323d
00000340: 6e1d 62bd f0be 5b3d 6bf6 e33d a45b c33c
00000350: 5d83 333d 5db0 06be 380e 00bd e9ae aebd
00000360: 494e 95bd 2270 6bbd f9c7 4b3c 7dae c13d
00000370: d112 273e 4f4d eb3c c218 a8bd c5a6 0fbd
00000380: 627f 9cbc 2e9e 0a3d ec05 f13d f7b3 033c
00000390: 9437 0a3c 8979 3cbd 0ecf 583c 5c0b 94bd
000003a0: 554d 973e 02fd 52be 7d95 febc 46f5 d1bc
000003b0: 5796 723e 5859 1fbd 6e4e c53c 5a9c 943c
000003c0: b237 0bbd b4df 01bd 64a2 b5bd fbb5 7b3b
000003d0: fe0b ca3e 0fe6 c23c 9002 af3c 6bba 07bb
000003e0: 51dc 273b c503 03be eb2a 2d3d 9533 5f3d
000003f0: a624 dc3c 27cb 863d 44c8 d7bc 24b9 60bd
-0.12743741 0.006933759 0.020665318 0.016284298 -0.08827501 -0.064306654 -0.06444934 0.016982038
-0.02265104 -0.016321713 -0.034768865 -0.116179734 -0.12065504 -0.07068911 0.02437829 -0.013735439
0.039924502 -0.040153388 0.005035989 0.02199555 0.050248556 -0.027918985 -0.07039132 0.0065245028
-0.07864396 -0.06251318 0.07574254 -0.09533614 0.027468376 -0.008032706 -0.12054982 -0.015064234
-0.071537465 -0.11840796 -0.06345786 -0.08654167 0.0018261751 -0.014146143 0.021151042 -0.061560635
-0.070987694 -0.13988051 0.014270919 0.021286387 0.041531816 0.043367803 -0.0022033218 0.04915948
0.030459909 -0.08895932 -0.03647986 0.019362718 -0.09345647 -0.10752281 -0.05615967 -0.034308113
0.013334675 -0.030932026 -0.05328479 -0.066690214 0.053331345 0.013740176 0.056667954 -0.079036586
-0.03354638 -0.10580086 0.016498972 -0.07362994 -0.07315738 -0.082113646 0.024768772 0.047547903
0.024021037 -0.031147655 -0.109231465 -0.12817399 -0.008417099 -0.07322605 -0.09711007 -0.10585663
0.038847573 -0.059651125 -0.07050961 -0.091603205 0.04519403 0.00783523 -0.10230076 -0.021811217
-0.10504485 0.0063003143 -0.053685054 -0.02200822 -0.10967588 0.015282951 0.03269785 0.05850179
-0.06598108 -0.035581257 -0.10347894 0.07296988 -0.07262856 -0.081670225 -0.050756264 -0.06121735
-0.08265646 -0.06950843 -0.041684583 0.038994938 -0.10804586 -0.06376322 0.06501375 -0.08914379
0.031081283 0.011677332 -0.019566735 -0.059845377 -0.022065252 0.03574958 0.02291344 -0.12434036
-0.06892483 -0.0928475 -0.046854116 -0.032871857 -0.07872835 -0.02966506 0.047344685 0.063706845
0.040263727 0.032538667 0.06523093 -0.06331494 -0.046354927 0.27266073 0.10154247 0.0070348284
0.116077475 0.009861935 -0.062068917 0.026365664 -0.26294255 -0.022321517 -0.02539869 -0.06020437
-0.026153706 0.003416663 0.052371908 0.13793679 0.00689225 0.06271413 0.017712055 -0.034668405
-0.070296414 -0.01837304 -0.016630648 0.070476025 -0.15146393 0.106081866 -0.12858893 0.23327531
-0.04345549 0.033649407 -0.07104108 0.059847016 0.2530561 0.08231761 0.04058058 -0.06701397
-0.14204755 0.19346459 0.056468755 -0.04769782 0.027431909 -0.016047195 -0.19602537 0.0814322
-0.55013114 -0.07394379 -0.15106837 0.0129748685 0.11363362 0.037848216 0.16281353 -0.03207009
-0.05023991 -0.015369848 -0.18454604 -0.17191342 -0.04295157 -1.2599106e-05 -0.04660843 -0.16038844
0.09246722 0.023161527 -0.083397925 -0.05609533 -0.29395154 0.012441531 -0.05416641 -0.05371703
-0.19483173 -0.09981875 0.057083458 0.04415297 -0.55685115 0.31829926 -0.048399802 0.043492664
-0.055203848 0.05364889 0.11130985 0.023847409 0.04382645 -0.13153215 -0.03126356 -0.08529455
-0.07290322 -0.057479985 0.012437814 0.09457109 0.16315772 0.028723387 -0.08207847 -0.035071153
-0.01910371 0.03384226 0.11768708 0.008038512 0.008436102 -0.046014342 0.013232959 -0.07228729
0.29551187 -0.20604327 -0.031077141 -0.02562965 0.23690163 -0.038903564 0.02408525 0.01814096
-0.033988662 -0.03170748 -0.08868864 0.003840803 0.39462274 0.023791341 0.021363527 -0.002071048
0.0025613497 -0.12794407 0.042277258 0.05449255 0.026872944 0.06581717 -0.026340611 -0.054864064

encoder.2.bias f4 [64]
00000000: d7cd 8cbc 9f51 0d3e 6b79 c1bd 3c31 04be
00000010: 51a0 c4bd cb99 90bd 84e3 5f3d b4a0 c7bd
00000020: 0572 9b3e c01a 7ebe 8094 e6be 27c5 5c3d
00000030: 8ef7 20bf 4ea0 39be 4d56 d13c 7f44 88be
00000040: 1d7e b2bd 336c febd 3b06 29be bdf7 913e
00000050: 53b4 8fbd 2b8c 323f e35f 71be 3539 06be
00000060: 3229 163d 1266 ad3d 741a adbd 531b a1bf
00000070: f36c 1fbe 6e1c 0d3f 1a14 eebd 2afc 52be
00000080: 7995 d73e cfaa 4ebf 973c b8bc 9be1 57be
00000090: 47bf 64be 54b6 4cbe 640a a23e c6af 003f
000000a0: 4f69 17be 0848 0ebe 5d56 f9be 2fed debe
000000b0: 35ae 9ebd 7444 9dbe f1fb a6be eb2b 09bd
000000c0: 7728 12be 7019 1abe d8ff f5bd 3fe6 68be
000000d0: c5bc 2bbe 40ea 383e b608 2bbe ff57 0a3f
000000e0: 8352 68be 55f1 10bd 4808 e23e 131c cebd
000000f0: eba6 1ebe ce94 16be e26a 56bc adb2 a13e
-0.017187996 0.13800667 -0.09446987 -0.12909406 -0.096008904 -0.07060584 0.054660335 -0.097474486
0.30360427 -0.24814892 -0.45035172 0.053898957 -0.6287774 -0.18127558 0.025553847 -0.26614758
-0.087154604 -0.12422981 -0.16506283 0.28509322 -0.07016816 0.6974513 -0.23571734 -0.1310776
0.03666038 0.08466734 -0.08452311 -1.2586464 -0.15568905 0.55121505 -0.11624928 -0.20604005
0.42106226 -0.80729383 -0.022489829 -0.21082155 -0.22338592 -0.19991428 0.31648552 0.5026821
-0.14786266 -0.13894665 -0.48698702 -0.43540332 -0.07748071 -0.30716288 -0.3261409 -0.03348915
-0.14273249 -0.15048766 -0.12011689 -0.22744082 -0.16771229 0.1805811 -0.16702542 0.5404052
-0.22687726 -0.035386402 0.44146943 -0.100639485 -0.15493362 -0.14705202 -0.013087006 0.3158163

encoder.4.weight f4 [32, 64]
00000000: 2366 ad3c 9f76 bdbd c04c 3b3d 66b5 aebd
00000010: db4e df3d bbf3 48be 7b71 a63d fc6f 45be
00000020: 19ee e03d 043b a9bd 62c9 a7bd 6942 1a3e
00000030: f601 1a3d 8d3b b43d 5e35 e43d e467 21bd
00000040: 748c dc3d f2b6 0a3e 9104 1e3e 902f 8a3e
00000050: 127a 5cbb b95c e93d 323e 2fbe 1420 a03d
00000060: 61b7 44bd df53 833d 1f06 8fbd 6ba6 493a
00000070: 44d6 e63d 31b3 48be b243 873d 2944 cbbd
00000080: 940c 3bbc be11 5c3d 58a6 9f3d f95c f4bc
00000090: 0dec 5fbe ea7c e5bd 484c f73d f8ab 003e
000000a0: 8f7f a6bc ebcf 943c 9388 6c3d 09ea 553e
000000b0: 4b33 6abc 7dbc b93d c061 723c ed09 60bb
000000c0: d94b 49be 3697 4d3e 84e8 2a3e f4de 6ebd
000000d0: 4f48 133e 21a6 133d 7ac9 69bd 396e 643d
000000e0: 48ab 82bd 83e4 1ebd ceda 2b3e d351 b93d
000000f0: 22aa 543e 718c 2d3b ace0 5fbe 2897 843e
00000100: e090 883d 94f1 0dbe 5c18 50be e214 ecbd
00000110: a0c8 293c 58af 723d 6c4c f3bd 26a4 dabd
00000120: 0e1e 65be 3e0a 1bbe b0f7 58bd 644e cd3a
00000130: ae20 4a3e 0078 34bd 4817 1e3d e09f 04be
00000140: 1640 d43d 94b6 cf3d da23 c63d 54ae 33bd
00000150: c849 c4bc e824 47bc 96be b7bd 700f f83d
00000160: f0e0 a93d e00d b23d eef5 a93d ad27 d9bc
00000170: e46d 743d 1fed 29be ea1d b13d 009b fb3c
00000180: 4c75 b9bb 49f7 4cbe c08c be3b b08c 6ebc
00000190: 9c63 683d 3445 4fbd 8408 96be 6c69 64bc
000001a0: 88d5 953c 3c91 dc3d 9c59 8e3d 1b3c 52be
000001b0: 4411 743d 8615 0b3d b905 4fbd 262e 8bbd
000001c0: 1f96 90bd 5ca5 343d 4625 97be 70c3 60bc
000001d0: 20d2 d7bb 8958 4bbd a8c0 0f3d 1294 4bbe
000001e0: 3cc5 d7bd ca88 e6bd ed18 53be d070 593c
000001f0: 1810 b53d b885 7f3d 72a6 9bbd cb6a f7bd
00000200: 1986 80bd 9b3c d8bd 37a9 f1bc a202 9d3d
00000210: ffaa ec3c 6e9d c5bd 15a4 943d 0314 a83d
00000220: 458d d7bd 3233 bebd be8c b1bd 4f07 46bd
00000230: 90ac d1bd 43e4 01be 98ad c43d e882 ddbb
00000240: 29a1 103b adce 1ebc e378 a23d e69a 08bd
00000250: 3121 c73d 21e5 a2bd 1975 70bd e255 87bd
00000260: d0d7 3a3c da2a e33a a551 a4bd b1b5 f6bd
00000270: ea6c 31bd 571d b73c 6022 fd3b c0ab d5bd
00000280: 7326 28be 8266 523c 94db 1fbd 7a5a 373d
00000290: 7781 ebbc 7ffb 693c 3f69 b4bd 720a 0ebe
000002a0: 3654 ec3c 4c20 e7bd fdad 16be c367 40b9
000002b0: 46e7 bcbc 70ff febd acaf 0cbe 1a6f ce3b
000002c0: c88c 493d 4549 a33d 9c8f 80be 6a75 dbbb
000002d0: 766b ed3d f9a8 0fbc 820a b3bc 89b6 b6bc
000002e0: 4a53 063e 6394 183d bcce b6bc 4816 89bd
000002f0: 9854 90bd aedd 143c 5aed 063e 9b09 acbc
00000300: 1e6b 07be 0eb9 e5be 016e b2bd 8783 833d
00000310: 206c a13d 9233 db3c 9c48 dd3c dc6c 24be
00000320: 08b1 51be 4f9f 84bc 5ac0 8b3d fa91 843d
00000330: 6cb6 dd3d 0741 a5bc 1d8b c03d 947b f33d
00000340: 9250 a9bd 7884 873d b8e0 a2bc 6f2c 253e
00000350: f98f 21bd 7db6 de3d d1f2 3abc 3ebd 45bd
00000360: 098c 9d3d 399f e8be 354c e9bd 59fa b9be
00000370: dabc 4e3d d5e9 d7bd d826 c33d 9ae8 123d
00000380: 24ea 113e d9b7 5ebe eef1 52bd c0f3 1ebd
00000390: c59a c6be 645c 1cbd 9c85 36bd 96de 083e
000003a0: baaf 98bd 9fa4 84bd 67b8 a0be a1b3 783d
000003b0: cd18 cb3c 5bef 313e db7d 72bd 33d0 903d
000003c0: 7d0c a23e c34c 173e 5b4f 73bc a566 d63c
000003d0: d21a 22bd ab16 bebe 98e5 64be 4577 c93d
000003e0: e275 fbbd dde1 2abe 15c9 403e 3f98 cdbd
000003f0: 1353 363c 5af7 3dbd d773 41bd fcc2 9fbe
0.021166867 -0.09251141 0.04572749 -0.08530693 0.10903712 -0.19624226 0.081271134 -0.19281
0.109829135 -0.082632095 -0.081927076 0.15064396 0.037599526 0.08800421 0.111429915 -0.03940572
0.10768977 0.1354635 0.1543143 0.26989412 -0.0033642096 0.113946386 -0.1711357 0.078186184
-0.048026446 0.064124815 -0.069835894 0.000769234 0.11271337 -0.19599606 0.06604709 -0.0992511
-0.011416573 0.053727858 0.077953994 -0.029829489 -0.2186739 -0.11205466 0.12075096 0.12565601
-0.020324497 0.01816555 0.057747435 0.20890059 -0.014294456 0.090691544 0.014793813 -0.0034185604
-0.1965784 0.20077214 0.1669026 -0.058318093 0.14383052 0.036047105 -0.05707691 0.05576918
-0.063803256 -0.038792145 0.16782686 0.0904881 0.20768026 0.0026481415 -0.2186305 0.25896573
0.06668258 -0.13861686 -0.20321792 -0.115274206 0.010362774 0.059249252 -0.11879811 -0.1067584
-0.22374746 -0.15140626 -0.05297059 0.0015663621 0.19739029 -0.044059753 0.03859642 -0.12951612
0.10363786 0.10142246 0.09674807 -0.043867424 -0.023960963 -0.012154795 -0.08971898 0.121123195
0.082948565 0.08694053 0.082988605 -0.026508177 0.059675112 -0.16594361 0.08648284 0.030713558
-0.005659735 -0.20016207 0.0058151186 -0.01455991 0.05673562 -0.050603107 -0.29303372 -0.01394115
0.018290296 0.10769889 0.069506854 -0.20530741 0.05958678 0.033956073 -0.050542567 -0.067959115
-0.07059883 0.04410301 -0.29520625 -0.013718471 -0.006586328 -0.04964498 0.03509584 -0.19880703
-0.10535666 -0.11256559 -0.20614977 0.0132715255 0.0884096 0.062383384 -0.07600106 -0.12080916
-0.06275577 -0.105584346 -0.029499633 0.07666518 0.028890131 -0.09649168 0.07257859 0.08206942
-0.10524992 -0.092871085 -0.086694226 -0.048346814 -0.10237992 -0.12684731 0.09603423 -0.00675999
0.0022068715 -0.00969283 0.079332136 -0.033350848 0.09723128 -0.07953859 -0.058705423 -0.06608178
0.011403993 0.0017331496 -0.08023385 -0.12046374 -0.04331676 0.022352858 0.007725045 -0.10433149
-0.16420917 0.012841823 -0.039027765 0.04476402 -0.028748257 0.014281153 -0.088091366 -0.13871172
0.028848749 -0.11285457 -0.14714809 -0.00018349201 -0.023059499 -0.124510646 -0.13738889 0.0062998654
0.049206525 0.079729594 -0.25109565 -0.0066973465 0.11592762 -0.008768314 -0.021855596 -0.022303836
0.1311771 0.037250888 -0.022315376 -0.06693703 -0.07047385 0.009086056 0.1317648 -0.021000674
-0.13224456 -0.44867748 -0.08712388 0.06421571 0.07881951 0.02675799 0.027012162 -0.16057152
-0.20477688 -0.016189246 0.068237975 0.06473155 0.1082581 -0.020172609 0.09401534 0.11888805
-0.08267321 0.06617063 -0.019882545 0.16130231 -0.039443944 0.108746506 -0.011410431 -0.04827618
0.07692725 -0.45433977 -0.113914885 -0.36323813 0.05047307 -0.10542647 0.09528893 0.035866357
0.14249474 -0.2174982 -0.051500253 -0.038806677 -0.38789955 -0.038174048 -0.044561014 0.1336616
-0.07455392 -0.064767115 -0.31390688 0.060718182 0.0247921 0.17376463 -0.059202056 0.07070961
0.31650153 0.14775376 -0.014850463 0.026171992 -0.03957636 -0.3712667 -0.22353208 0.09837202
-0.12278344 -0.16687723 0.18826707 -0.10038804 0.011128205 -0.04637847 -0.047229614 -0.3120345

encoder.4.bias f4 [32]
00000000: da68 f13e f0bc 15be 105e 1cbe 3371 0a3e
00000010: 789f 1abe 4a2d 113c 0c5d 06be e097 82be
00000020: b8d3 c8bd 8619 00be c125 a6be efc6 87be
00000030: 2e08 9abe 68d2 153f a7d6 2abe 9730 53be
00000040: 6e3d 14be 18ff 213e 6721 55bd 1522 8d3e
00000050: 1e74 413e 9273 2fbe 28aa 063f 1018 3dbe
00000060: e4da 00bc c4c2 28bc 0094 26bd aa17 c5bd
00000070: b612 5cbe 6f55 a5bd 2a55 12bd 2782 24be
0.47150308 -0.14622855 -0.15270257 0.13519745 -0.15099895 0.008860895 -0.13121432 -0.25506496
-0.09806007 -0.12509736 -0.3245068 -0.26518962 -0.30084366 0.5852418 -0.16683446 -0.20624004
-0.14476559 0.15819967 -0.052033808 0.27565065 0.18891951 -0.1713393 0.5260339 -0.1846621
-0.007864688 -0.010300342 -0.040668488 -0.09623654 -0.21491513 -0.08072936 -0.03572575 -0.16065274

encoder.6.weight f4 [10, 32]
00000000: 49c7 513e 5d46 5dbe e8a4 cf3d e02d 8abd
00000010: 17d8 1a3d 6a01 cd3d c75d 52bd 6f24 d8bd
00000020: b267 073d e3da d23d 4922 0bbe 598d 2dbe
00000030: aa1f 7b3e d304 e0bd 5e76 e4bc 1f7a 4f3d
00000040: 5b38 12bd 9124 f439 b9aa 3abc 8f43 25bd
00000050: f380 4c3e 8edb 663c 7aea fc3b 3b80 37be
00000060: 9353 5bbd 089a a73d 492e 5e3d a467 8fbc
00000070: 3e1f 8d3d cac3 11bd c158 ac3d c0d3 fb3d
00000080: 4742 c8bd e8b7 c9bd bd99 f7bd ea00 c33c
00000090: 1b7e 563e bc55 1a3e 3a50 07be a460 cb3c
000000a0: fa25 f73d 4d1b 753d e9ee e33c 5415 f9bd
000000b0: cef9 c8bd cba9 283d a23b 72be 0969 19be
000000c0: b139 813d e56f 943e 31ef fabd 1f85 2fbc
000000d0: 2c3a 87bc 5024 27bc 425e 963c 0086 a03e
000000e0: f912 82bd 6636 22bd d05f 0f3d 78bd b83d
000000f0: d31a f63d e9f2 e93d 0624 2abe 4dc5 223e
00000100: 438e c73d 6424 77bc 83c1 943d 554c 99bd
00000110: d6e7 273e 03a9 acbd 75cb e5bb 7c39 123c
00000120: 8919 ea3d 52da d1bb d8ec 21bd 6be4 2fbd
00000130: 1ac5 a4bd 5212 ba3d 40fc 8a3c 00f9 0cbb
00000140: 95e9 173e 9813 ac3b 81e5 e2bd 99e7 413d
00000150: d666 43be a3be 4bbe b6c8 823e 7d5a 053e
00000160: f581 42be 71b8 9a3e 9c88 4abe 9b4c 2bbe
00000170: 27e4 b0bd 182d 7d3e 42fa 743e add8 88be
00000180: eeed fcbc c232 44bd 3d41 4abe b38b 2cbe
00000190: a26a 6d3c 5dbd fb3b cc2b 50bc a8cf d43b
000001a0: 4c79 9b3d d911 233d 8c7f 253e ed87 7d3d
000001b0: b6a0 22be e7ef 1b3d 1afc 1e3e 39b9 08be
000001c0: 563a 2cbc 7229 f13d c792 03be 11f5 b73d
000001d0: f490 d03d 6b05 38bd 6246 54be 3fc5 88bd
000001e0: 70be 5abe f9f6 3bbd d05e b33d bf43 823d
000001f0: 3b90 18be c965 c8bc 8050 88bc 4a94 15bd
00000200: 9734 073d f002 54be 5ef1 b1bd 8615 833c
00000210: 5aee 0dbe d42f 4dbd 3743 2bbe 057d 29bc
00000220: bff5 b73c b000 ccbd df27 543e 531b 6f3d
00000230: f5c2 cfbd a7b1 41be d4fd 213e 6ace d03d
00000240: 2900 02bd ed49 323e 436f 003e 6edd 88be
00000250: fa43 6fbd d88f babd 9834 a13d 501c f6bd
00000260: 9d7a 433d 953b 3ebe 7939 9abd ad28 633e
00000270: 8825 4cbd ae31 abbc 7aeb dbbc d9d7 c3bc
00000280: ba46 833c 7c6c f83d 3852 95bd 5599 e9bc
00000290: 12b0 303e 01a5 a43c 9bc3 c1bd 0f27 2cbd
000002a0: eecc abbd aafa 543e e035 66bd 076a 7b3e
000002b0: a703 86bd 2ea2 65be 0d1a d4bd 6fd6 9abd
000002c0: 1ffd c5bd 40c2 e83b 292b f3bd fec5 933d
000002d0: 5583 fabc b56c 7a3b 120b 753d aa8c 0e3e
000002e0: 243f f43c 8fd3 5abd 4250 f0bd d49d 9abc
000002f0: 2371 21be 1a3e 043e aeb5 e5bc 6d22 433e
00000300: 96d2 ef3d e792 fe3d 6f63 013e deaf 523e
00000310: c0b1 1c3d 2c88 8dbd 08c0 c33b e288 4e3d
00000320: f5b0 0a3e c9eb 0ebd b552 663c b018 b83d
00000330: 7af6 48bd 374b 49bd 9247 86bd eb12 38be
00000340: cde9 3d3e 0f58 b6bd ce23 b43c 5ac5 febc
00000350: 9ef8 5f3d 76c1 afbd d176 013d 4a22 fc3d
00000360: 2435 76be 25ec f4bd d4bc d1bd 64f3 213e
00000370: d55b 37be a808 a23d e7f2 1c3d cc61 383d
00000380: 66e7 753e a1b3 abbd fcf0 043e 0a2d 893d
00000390: 7fe8 6e3e e74c 143e d928 633c b270 6b3e
000003a0: 9e11 69bd 87a3 9dbd b4cd 8f3d e9eb 06bc
000003b0: b90e b5bc abc0 cebd 79b9 223c dcea b9bc
000003c0: 16e5 60bd f76f 61b9 f33e 9fbc f6a6 183e
000003d0: 1794 4dbe 7ed5 313e 1009 42be 2731 43be
000003e0: c031 403d 837c 8ebd 555d 5a3b 97fa 30be
000003f0: de2f 1dbd 6b66 2b3e 6b2f 803d 9c57 1dbe
0.20486178 -0.21608873 0.10138875 -0.06747031 0.037803736 0.10010035 -0.051358964 -0.10553824
0.033057876 0.102956556 -0.13587297 -0.16948451 0.24523798 -0.1093842 -0.027888473 0.050653573
-0.035698276 0.0004656655 -0.0113932425 -0.040347632 0.19971065 0.014090432 0.0077183815 -0.1792001
-0.0535465 0.08183676 0.05424336 -0.017505474 0.068907246 -0.03558711 0.08415366 0.122962475
-0.097782664 -0.098495305 -0.1208987 0.023804147 0.20946543 0.15071768 -0.13214198 0.024826355
0.1206779 0.05984049 0.027823882 -0.12162271 -0.098132715 0.041177552 -0.2365556 -0.14981474
0.06309832 0.2899162 -0.122526534 -0.010712891 -0.01650723 -0.010201529 0.018355493 0.31352234
-0.06351275 -0.03960266 0.035003483 0.09020513 0.12016835 0.114232846 -0.16615304 0.15895577
0.09743931 -0.01508436 0.07263472 -0.07485262 0.16397032 -0.08430674 -0.0070127794 0.008924838
0.11430652 -0.0064041996 -0.039532512 -0.042942446 -0.08045407 0.090855256 0.016965985 -0.002151072
0.14835198 0.005251359 -0.11078931 0.04734001 -0.19082198 -0.19896941 0.25543755 0.130228
-0.18994887 0.30218843 -0.19778675 -0.16728441 -0.086372666 0.24724233 0.23923591 -0.2672781
-0.030875172 -0.04789997 -0.19751449 -0.16850166 0.014490755 0.007682486 -0.0127057545 0.006494481
0.07591495 0.039811943 0.16161937 0.061897207 -0.15881619 0.038070586 0.15525857 -0.13351907
-0.010511955 0.11775483 -0.1284896 0.089822896 0.101838976 -0.044927042 -0.20729974 -0.06678247
-0.21361709 -0.04588983 0.087583184 0.06360578 -0.1489877 -0.024462597 -0.016639948 -0.036518373
0.033009138 -0.20704246 -0.08688615 0.016001474 -0.13860455 -0.05009444 -0.16724859 -0.010344748
0.022456048 -0.09961069 0.20718335 0.058375668 -0.10144607 -0.18915425 0.15819484 0.1019562
-0.031738434 0.17411013 0.12542443 -0.26731437 -0.058414437 -0.09109467 0.078713596 -0.12017119
0.047724355 -0.18577416 -0.07530493 0.22183485 -0.04984048 -0.020897713 -0.026845682 -0.023906635
0.016024936 0.12130067 -0.072910726 -0.028515497 0.17254665 0.020098211 -0.09461137 -0.042029437
-0.083886966 0.20798746 -0.056203723 0.24552165 -0.065436654 -0.22425148 -0.10356531 -0.07560431
-0.0966742 0.0071032345 -0.118734665 0.072154984 -0.030580202 0.0038211767 0.05982501 0.13920847
0.029815264 -0.053424414 -0.11734058 -0.018874086 -0.15765814 0.12914315 -0.028040733 0.19056101
0.11710088 0.12430363 0.12635587 0.205749 0.038255453 -0.06910738 0.0059738196 0.05042351
0.13544066 -0.03489283 0.014057805 0.08989084 -0.049063183 -0.049143996 -0.0655662 -0.17975967
0.18546219 -0.089035146 0.02198973 -0.031099964 0.05468046 -0.085818216 0.031607453 0.123112276
-0.24043709 -0.119591035 -0.10241094 0.15815502 -0.17906125 0.07911807 0.038317587 0.04501514
0.24014053 -0.08383871 0.12982553 0.06698044 0.23330878 0.14482461 0.013864719 0.22992209
-0.056901567 -0.07697206 0.07021657 -0.008234956 -0.022101747 -0.10095342 0.009931915 -0.022694997
-0.054905973 -0.00021499382 -0.019439196 0.1490744 -0.20076023 0.17366597 -0.1894877 -0.19061719
0.046922445 -0.069573425 0.003331979 -0.17283092 -0.038375728 0.16738288 0.06259044 -0.15365452

encoder.6.bias f4 [10]
00000000: 2238 9ebe b714 8b3e 3b50 00bd ff36 b7bd
00000010: 23d7 5bbe 90a3 2f3e 12a9 043e 6fe1 543d
00000020: 9b4b 6b3d a4c6 873e
-0.309022 0.27164242 -0.031326514 -0.089460365 -0.21468787 0.17152238 0.1295512 0.051972803
0.05744515 0.26518738

decoder.0.weight f4 [32, 10]
00000000: 26bb 25be 2757 a93e 86ce 96be 4f27 963d
00000010: b1d8 94bd 1f39 0c3e bec1 513e 4c26 3b3e
00000020: 675a a03e 114b 053f 2b7d 60be 58e1 a33e
00000030: d080 30be 5808 b93d f05a 763e 8d10 c03e
00000040: 4bfd 013e 8b4b de3d 7979 dd3e c52d 6c3e
00000050: bb80 88bd 36e8 a13e 9eb8 1dbe 0505 103e
00000060: 92a6 543d cef8 cfbd ce43 323f 4a71 913d
00000070: 15bc 283f 6c9b 30bd 53c3 27be 3efb 02bd
00000080: 68b2 77bd b66a 5f3e 3149 4cbe 5e88 eabd
00000090: dee0 073e 597d 0d3e 3c64 723e 99db d2bd
000000a0: 41d7 683e 5c6f aa3d d021 e5bc d643 953d
000000b0: 2b8e 683e 1d1f 873c 60d2 453d 9f0d 473e
000000c0: 7f1a 9cbe 6753 3dbc aada 793d f775 5abe
000000d0: a4c5 0b3e 2c51 7bbe fc6b 9f3d 4839 6e3c
000000e0: acff 7dbe 21cb e1bc c165 63be da82 4fbd
000000f0: 2453 30bd b09c 133e 48fd 6cbe 8633 643c
00000100: 52fb a33e cc64 543c 5e15 b33e 9a8b 113e
00000110: 90c8 023f ad20 2f3e b4e8 a8bc 17a3 213e
00000120: 2a74 923e 52d0 083d 913f 913b ece4 683d
00000130: c7e6 a2bc dde4 193d c732 1cbd 5ca5 003e
00000140: fa29 97be 8447 b43e 67b7 243c 9001 7a3d
00000150: fe70 97bd c890 9dbd ded6 ed3d de17 cf3e
00000160: eeff 243e 6100 7d3e 6c6f 8ebe e8fa f3bb
00000170: 2a1a aa3e 94df 62bd f0f0 80bc bdf6 bd3b
00000180: 4d57 ac3d 0e12 093e b75d 1d3e 26ba fe3c
00000190: 5e7f 0f3d 195d 02be 6568 14be 2363 32be
000001a0: 1b1c 94bd 4473 21be 377d d03e 8fe0 eb3c
000001b0: 7ec0 cebd 60b9 ff3c c3ca 34bd 495e e03d
000001c0: 90a5 733c 38a9 febd 1773 c4bc 912c 62be
000001d0: 7411 c7bd 53f4 58bd d9ac bcbd 4282 44be
000001e0: 20e2 15be 93cd 03be 7b85 99bd 8baa 853d
000001f0: 97a2 323d cf78 fb3b bc5a 2b3d 646a cf3d
00000200: c908 5bbe 94ea e73d f91c 46bd 5db7 0fbe
00000210: 8800 6b3d 38a1 f3bc bb78 ff3d 9e1b 043d
00000220: 435c 383e b158 44be 32f0 d6bd 4be3 c3bd
00000230: 70c7 78be 066e 96bb 26e0 413e 70c2 743e
00000240: bf5c 63bb e89c 713d 284b 193c f943 9ebd
00000250: dca2 4abe 59bf 2fbe 260e 12bd 1060 d93c
00000260: b08d 873c aeb8 6f3e bbbd cd3d de09 e73e
00000270: 1e1d 663e 22c1 a3bd 10b4 2d3f b617 8b3e
00000280: d567 d53a 4d17 2e3b d3fd 5dbd 7398 aebc
00000290: 888e babd 2c5c 6e3d 73b1 2d3d db99 0b3d
000002a0: 4035 fbbd 2005 f4bd 1768 393e a5f8 2cbd
000002b0: cb0a 30be ba67 843d 58d0 313d 98a3 bf3c
000002c0: a8a4 74bd d281 18be 4988 bdbd 253f 91bd
000002d0: ce2c 823d e963 823d 99a2 29bc 8be5 d4bb
000002e0: 432d 05be 3325 2a3d e0f0 d2bd 5d11 78be
000002f0: bc4e 9cbe 196e 993d 91e0 8abe ed1d 743e
00000300: e5e8 85be ed2e 2dbe 61db 5f3e 6f88 45be
00000310: 0e66 d83e 54c3 d13e 5908 103f 9e86 9dbc
00000320: 2d7d 28be 265b 173f 43aa 6a3d 4d73 54be
00000330: eb9e 3bbd cea7 bdbe 6ec3 533f e1ec 9bbd
00000340: d0ff aa3f d3ff 253f 7ad2 79bd fa47 043e
00000350: d788 dd3d 5870 79bd ef75 1a3e 43b7 d13b
00000360: 1f5f 61be cc06 f2bc 7bb7 073d 44a6 023e
00000370: 0598 95bd 3685 80bd c260 82bd 6c43 69bd
00000380: b84d 28be 9909 ecbc 2ed7 0fbe 170b c93d
00000390: d745 59be 16f0 43bd e667 8dbe 844f 4cbe
000003a0: 7680 c13d 9cbe a9bd 8f26 67be 08c3 97bc
000003b0: d243 853c eb1f 2cbe 882d ab3e 3afb b0bc
000003c0: 7c79 b8bd 4ec8 1f3e 6a1a 1dbe 01be 5e3e
000003d0: 89ba 983e 0cfb c03e 0cfc 623e 4ac9 443d
000003e0: 7aeb 023f 6818 74ba 80ab b1bd 3fb0 0fbd
000003f0: d6ac 92bc f383 413e 5a16 143e e82f 0a3b
-0.16184673 0.33074304 -0.2945444 0.07331716 -0.07267893 0.13693665 0.20484063 0.18276328
0.31318972 0.5206767 -0.21922748 0.3200786 -0.17236638 0.090347946 0.24058127 0.37512627
0.1269428 0.108542524 0.4325674 0.23064335 -0.066651784 0.31622475 -0.15402457 0.14064415
0.051916666 -0.101548776 0.6963471 0.07101686 0.6591199 -0.04311697 -0.16383104 -0.031977884
-0.060472876 0.2181805 -0.19949795 -0.11451791 0.13269374 0.13817348 0.23671049 -0.10295791
0.22738363 0.08322021 -0.027970225 0.07288329 0.22710483 0.016494328 0.048296332 0.1943879
-0.30488965 -0.011555529 0.06099955 -0.21334063 0.13649613 -0.24542683 0.07784268 0.014540024
-0.24804562 -0.02756268 -0.22206785 -0.0506619 -0.04304804 0.1441524 -0.23143494 0.0139283
0.3202768 0.012963485 0.3497724 0.1421341 0.51087284 0.17102309 -0.020618774 0.1578487
0.2860425 0.033401795 0.0044326265 0.056858942 -0.019885434 0.037571777 -0.038134363 0.1256308
-0.29524213 0.35210812 0.010053492 0.061036646 -0.073945984 -0.076936305 0.11613248 0.40447897
0.16113254 0.24707176 -0.27819383 -0.007445682 0.33223087 -0.055389002 -0.015739888 0.0057972358
0.08415089 0.13385794 0.1536778 0.031094622 0.035033576 -0.12730826 -0.14492948 -0.1742063
-0.07231923 -0.15766627 0.4072053 0.028793601 -0.10095309 0.031216323 -0.04413868 0.109554835
0.014871016 -0.1243462 -0.02398066 -0.22087313 -0.09720126 -0.05296738 -0.092126556 -0.19190314
-0.14637041 -0.12871389 -0.074961625 0.06526669 0.04361209 0.0076743136 0.041834578 0.10127714
-0.2139007 0.11324039 -0.048367474 -0.14034791 0.057373554 -0.029739961 0.124741994 0.0322529
0.18003945 -0.19174458 -0.10495032 -0.09564837 -0.2429483 -0.0045907525 0.18933162 0.23902297
-0.0034692732 0.058987528 0.009356298 -0.077278085 -0.19788688 -0.17162837 -0.035658024 0.026535064
0.016547054 0.23410293 0.10045954 0.45124716 0.22472045 -0.079958215 0.6785288 0.27166528
0.0016281555 0.0026564181 -0.054197144 -0.021312928 -0.09109217 0.05819337 0.042405557 0.034082275
-0.12266016 -0.1191504 0.18106113 -0.042229313 -0.17191617 0.06465097 0.043411583 0.023393437
-0.05972734 -0.14893273 -0.0925451 -0.07092122 0.06356202 0.063667126 -0.010353708 -0.00649709
-0.13005547 0.041539382 -0.102998495 -0.24225374 -0.3052882 0.074917026 -0.27124456 0.23839541
-0.26154247 -0.16912432 0.2186103 -0.19290327 0.42265362 0.40969336 0.5626274 -0.01922923
-0.16454001 0.59123456 0.05729128 -0.20747109 -0.045805853 -0.37042087 0.8272008 -0.076135404
1.3359318 0.6484348 -0.06099174 0.12918082 0.10817116 -0.060898155 0.1508405 0.0064000203
-0.22008942 -0.029544257 0.033133965 0.12758738 -0.07304386 -0.06275408 -0.06366111 -0.056949064
-0.16435897 -0.02881317 -0.14046928 0.09816568 -0.21218048 -0.047836386 -0.2761833 -0.19952208
0.0944833 -0.08288309 -0.22573303 -0.018525615 0.01626769 -0.1680905 0.33433175 -0.02160417
-0.09007546 0.15603754 -0.15342107 0.21752168 0.29829815 0.37691534 0.22166461 0.048043527
0.5114056 -0.0009311498 -0.08675289 -0.03508019 -0.01790468 0.18897991 0.14461651 0.0021085683

decoder.0.bias f4 [32]
00000000: 453f ccbe 51a7 4bbf ef9b 2abf 1e72 34bc
00000010: b0e5 853d f6f4 3b3b 9f36 0dbf bf91 a8bd
00000020: 64ad 9a3a 14b0 5abe 4337 ebbb 3563 603e
00000030: 0628 b93e fd3d 893e 90ca 72bd ad05 ebbe
00000040: b8c3 ab3d ffaf 6a3d 5200 b43c 8e07 17bf
00000050: c61e c3bc e2f3 4b3d 211d 84bd 1db9 54bc
00000060: 6fe3 4fbf df4e 5f3d 08eb a43c 6c04 64be
00000070: e3fc 5dbf 42b5 963d bb17 9cbb 06ee 0dbe
-0.3989202 -0.7955218 -0.66644186 -0.011013536 0.0653795 0.0028679944 -0.5516147 -0.08230924
0.0011800942 -0.21356231 -0.0071782186 0.21912844 0.36163348 0.26805106 -0.05927521 -0.45902768
0.0838694 0.05729675 0.021972809 -0.589959 -0.023818385 0.04979313 -0.064508684 -0.012983588
-0.8120641 0.054518577 0.020131603 -0.22267312 -0.86714 0.07358791 -0.004763571 -0.1386033

decoder.2.weight f4 [64, 32]
00000000: 3af4 ab3a 0c07 46bd d7dc 263e 5741 14bd
00000010: 8a8f 7bbd defb 29be bc3c 14be 015d 4abe
00000020: be71 06be 032e a6be 5c43 dcbd cffc 2dbe
00000030: 94bc b9bd ffd6 9cbe 2e34 7abd 7027 243e
00000040: 80b3 5abe 2bed 51bd cb71 5cbe 91d0 ae3d
00000050: 22e4 eebd 0c79 a1be 5978 87bd 6530 f5bb
00000060: e298 993d 7c84 0bbe 9361 eabd eba5 17bd
00000070: dcf4 413d 63cb 04be 6b3f 43be c023 123d
00000080: 7ff2 cd3d 9478 76be d67b 48be 650d 9bbb
00000090: 93cd 35be 6466 9abe 036c 243d 9c9f 123e
000000a0: 067f 733f 849c 69bf 7ef0 3c3f 623f a4bd
000000b0: 44b3 b9bd bbe7 103f 3f46 82bf ddf1 563e
000000c0: 1bdf 90be bbb2 c73d f0b0 81be 3e54 733e
000000d0: 4fc0 13be f089 06bf bb5f 14bf 345c 0ebf
000000e0: ee66 f43d 1eeb 65bd f98f d4bd f832 b9bd
000000f0: a99c 56bd 832a 11bf db9f d4bc 7cf2 9abd
00000100: 8445 b3bd 6044 233b 2a36 c1bc 356a 4bbe
00000110: a80e 7f3d c16d 1cbd 82f4 c1bd deef 51be
00000120: a4b4 443d afec aa3d fde9 11be 037c 1bbd
00000130: 81c3 39be 8e08 2abe dd7b dc3d 5447 adbc
00000140: 7ecd babc a435 28be e41f 053e a599 413d
00000150: 3e1b d33d 3ec9 2abe 41bd f1bd c615 a2bd
00000160: 839b 063e e25f 0abe 42ea c93c 409b 16be
00000170: 68fa 1bbd 76fe e4bd ba1e a33d 339f b5bd
00000180: cee0 323e 05a4 2a3d 307f 423c a955 5cbe
00000190: c8dc bbbd a673 b6be 0433 75bd 96ae 07be
000001a0: ff2b 6c3d ba18 a6bd e54c b3bd 5240 fabd
000001b0: f67c b8be f572 17be 259b 31be 496f c7bd
000001c0: f14a 89bd 54f3 c6be 1d67 0a3d 4eae 9bbb
000001d0: cfd0 6cbd 4a9f afbd e8ec 1abe e1e2 b6bc
000001e0: 7b2a 6ebd a5b5 44be d92c 81be b629 9b3d
000001f0: 80e3 0d3d 5839 8ebe dd99 6dbe 2233 1cbe
00000200: 90b7 72be 15ad d6be c61b 733c 1f56 093c
00000210: 2ee8 96bd a4f9 8dbe 2214 bc3d 6237 9b3e
00000220: 72e0 ff3d 57d2 0c3e 1972 d03e 8c69 833e
00000230: 277c 9fbe 2955 023f 9c2a 873d d957 213d
00000240: 8180 7a3d 253d 31be ffa9 023c b604 8d3d
00000250: cabd c53e 3009 353d 40bb 3fbe d2ac 0abe
00000260: 1c47 8fbc 5b3a 12be 68be 993a edb4 633e
00000270: 830a 37be df8e 763e f781 6abe 1029 ef3c
00000280: 398c ac3d 06f9 4c3d 144c 123e e183 973d
00000290: 9c7f bebe 3d79 933e 4d07 4abe 3548 b03d
000002a0: 183b 013e 55e1 c6be e534 a73c 4c4c 043e
000002b0: 7ab5 4ebc 234d 8c3e ec4c 3e3c f284 02be
000002c0: 52d5 65be 6190 5abd f066 0e3d 594d 0ebd
000002d0: 532c dfbe 7e36 19bd 0c45 aabb 5bb5 0d3e
000002e0: 5582 4abe d2ce 87be 7714 343e 34a4 12be
000002f0: 389f 283e d744 c93d fefc 723e 0ed2 f4bd
00000300: d196 b0be e11e 2b3e 6ceb 483d 01a0 97bc
00000310: 94ca a8be 5487 60be 7c51 b4bd 5f45 593e
00000320: 3ccf 4a3e 273e 69be 1389 c23d 5e23 efbb
00000330: 5abd b53d 89db 833e 7f4e f83d 0345 c9be
00000340: e833 85bd bb16 88bd 88de d03e 1809 c2bd
00000350: a52e 36bf eda2 913e 1576 82be 2cfd 9a3d
00000360: d9f9 88be f67b dd3b c5e9 87bd 6272 713d
00000370: b7fd 293e 6c44 b2be 81f3 7c3d f2f9 3f3e
00000380: ea2a 15be 393a ea3d c718 ab3d 6762 693e
00000390: 13a4 2dbe c4f6 2cbe cae6 173e 6170 f5bd
000003a0: b738 dfbb bb44 aabd eacc 9bbd 6cce e9bd
000003b0: 527e f73c fb85 f7bd ed30 2ebe 2bd4 82bd
000003c0: beb9 24be ec39 b5be bf8a 8dbe c03d b73d
000003d0: ed35 4d3e 3e9d 24be 2988 4bbc 398c 423e
000003e0: 1922 e3bc d0bb e0bd 7f85 cebd 82fa b03d
000003f0: 38ec 2c3d 0a6a afbe 14ef 84be 6059 42be
0.001311905 -0.048346564 0.16295181 -0.036195125 -0.061416186 -0.16599986 -0.14476293 -0.1976204
-0.13129327 -0.3245698 -0.10755035 -0.1699097 -0.090691715 -0.3063278 -0.06108492 0.16030669
-0.21357536 -0.05125157 -0.21527784 0.08535875 -0.11664607 -0.31537664 -0.06614751 -0.0074825757
0.07499863 -0.13624758 -0.11444392 -0.037023466 0.047352657 -0.12968211 -0.19067161 0.035678625
0.10056018 -0.24069434 -0.1957849 -0.0047318214 -0.17754202 -0.30156243 0.04014207 0.14318699
0.951157 -0.9125445 0.7380446 -0.08019902 -0.09067395 0.5660359 -1.0177687 0.20990701
-0.28295216 0.09750887 -0.25330305 0.23762605 -0.14428829 -0.52554226 -0.57958573 -0.5560944
0.11933695 -0.05613243 -0.10379023 -0.09042925 -0.052395497 -0.5670549 -0.025955131 -0.075657815
-0.087534934 0.002491258 -0.023585398 -0.19864734 0.062269837 -0.038190607 -0.09470464 -0.20501658
0.048023835 0.08345925 -0.14249416 -0.037960064 -0.18140985 -0.16604826 0.107658125 -0.021152176
-0.022803064 -0.16426712 0.13000447 0.047265667 0.103079304 -0.1667833 -0.118036754 -0.07914309
0.1314526 -0.13513139 0.024647836 -0.1470766 -0.038080603 -0.11181347 0.07964845 -0.088682555
0.17468569 0.041660327 0.011871144 -0.21517052 -0.0917297 -0.35635108 -0.059863105 -0.13250193
0.057659145 -0.08110185 -0.08754901 -0.122192994 -0.36032838 -0.14789946 -0.17344339 -0.09738023
-0.06703747 -0.3885752 0.033789743 -0.0047510033 -0.057816323 -0.08575304 -0.15129435 -0.022324981
-0.05814598 -0.19209917 -0.2522953 0.07576315 0.03464079 -0.27778125 -0.23203225 -0.1525388
-0.23702836 -0.41928926 0.014838165 0.008382349 -0.073685035 -0.27729523 0.091835275 0.3031569
0.124939814 0.13752113 0.4071205 0.25666463 -0.31149408 0.50911194 0.06599924 0.03939042
0.061157707 -0.17308481 0.007975101 0.06885664 0.3862136 0.044198215 -0.18723774 -0.13542488
-0.017489962 -0.14280073 0.0011729719 0.22236986 -0.17875104 0.24077938 -0.2290114 0.029194385
0.08425183 0.050042175 0.14286834 0.07398201 -0.37206733 0.28803435 -0.19729348 0.086075224
0.12620199 -0.3884379 0.020410964 0.1291973 -0.01261651 0.274026 0.011615019 -0.12746027
-0.22444656 -0.053360347 0.034766138 -0.034741733 -0.43588504 -0.037405483 -0.0051962193 0.13838713
-0.1977628 -0.2652498 0.17585932 -0.14320451 0.16466987 0.09827583 0.23729321 -0.11954127
-0.34490064 0.16710998 0.04905264 -0.018508913 -0.32967055 -0.21926624 -0.088046044 0.21217869
0.19805616 -0.22777615 0.09498801 -0.0072979173 0.088740066 0.2575343 0.12124347 -0.39310464
-0.06504041 -0.066449605 0.40794778 -0.09474391 -0.71164924 0.28444615 -0.25480714 0.0756782
-0.2675312 0.006759162 -0.06636385 0.058946975 0.16600691 -0.34817827 0.06175566 0.1874769
-0.14567152 0.11436886 0.08354335 0.22791444 -0.1695712 -0.16891009 0.14834133 -0.11984325
-0.006812181 -0.083138905 -0.07607444 -0.11416325 0.030211601 -0.120861016 -0.17010851 -0.06388124
-0.1608648 -0.35395753 -0.27644917 0.08947325 0.20040102 -0.16075608 -0.0124226 0.18998803
-0.02772622 -0.109733224 -0.10084056 0.086415306 0.042217463 -0.3426059 -0.25963652 -0.18979406

decoder.2.bias f4 [64]
00000000: 0755 93be c538 f53d 7c54 f2bd b285 afbe
00000010: 3966 6dbc 7e19 f6bd d94d 493d 67cf 27be
00000020: bb03 3cbc 874d 68be 8c8c e8bd ad2c 38be
00000030: 7161 d5bd 5884 823d 5b3b 00be bb22 84be
00000040: 960a bdbc bba7 4f3e a631 87bf 7de6 a63d
00000050: 3992 a83d e133 443d 6ee5 ce3d 6e81 4a3e
00000060: 3142 b23e 3f65 bcbd b2cf d9bd 585f 99bc
00000070: 5bb1 abbe b12f dcbc b376 72bb ce2d 903d
00000080: 2a84 0d3d 55e6 6e3e cfb3 d7bd 212d 69be
00000090: 8360 dd3d 820e 563f f242 a5be fe7d 4b3f
000000a0: b18b 043f 628d 39be 74f6 623d e527 36be
000000b0: 0ecc 97bd cc6d fdbc a55a 713d 3289 efbd
000000c0: 62a9 da3d fc7e 043f d99b b0bd b50b 003d
000000d0: 3cfa 56bd 86a9 be3d 8e38 aabe bc1e 0a3c
000000e0: 983e 64be db2b 17be 399a 473f d9cd b3bd
000000f0: 262c f1bd 9161 58be 09bd 203e 2b99 81be
-0.28775808 0.119737186 -0.1183252 -0.3428169 -0.014489704 -0.12016581 0.049146507 -0.16387711
-0.011475499 -0.22685824 -0.11354932 -0.17985792 -0.10418976 0.06372899 -0.12522642 -0.25807747
-0.023076337 0.20278828 -1.0562027 0.08149431 0.08231015 0.047901038 0.10102354 0.19775936
0.34816125 -0.09198999 -0.10635318 -0.018722221 -0.3353375 -0.02687821 -0.003699702 0.070399866
0.03454987 0.23330052 -0.10532343 -0.22771122 0.10809424 0.8361589 -0.32277638 0.79489124
0.5177565 -0.1812034 0.055410817 -0.17788656 -0.07411967 -0.030936144 0.058924336 -0.1169609
0.106768385 0.5175626 -0.086234756 0.031261165 -0.052484736 0.09309678 -0.33246273 0.008430179
-0.22289503 -0.14762823 0.779697 -0.08779497 -0.11775999 -0.21130969 0.15697111 -0.2531217
